congestion_control/data/cc_model.pt (torch, 93202 bytes, 6 tensors)

action_net.bias f4 [7]
000000 fe bb 57 3d 1c 55 f3 bc 93 b3 e5 bc 11 f5 c3 3c
       0.052669518 -0.02970367 -0.02803973 0.023920568
000010 1a db 90 3c f5 bb 55 3d 02 c5 9d bd
       0.0176826 0.052181203 -0.07703592

action_net.weight f4 [7, 128]
000000 e1 9c ff 3d 25 a8 ac bd 0c fb a4 3d 9b d7 1a be
       0.12481094 -0.084305085 0.08055696 -0.1512131
000010 e2 68 1a be 90 fd 58 3e 0f f2 4c 3d 29 59 1b 3d
       -0.15079072 0.21190476 0.050035533 0.037926827
000020 1c 6e 85 be 40 d3 47 be 17 5b c3 bd c9 25 52 bd
       -0.2606057 -0.19514179 -0.095388584 -0.051305566
000030 ed 69 b6 3d 9f 95 82 be ea 5f 50 3d 36 62 60 be
       0.089069225 -0.25504777 0.05087272 -0.21912464
000040 03 d4 99 bc 01 84 95 3d b4 f5 3d 3d 6d 2c 22 3d
       -0.018777853 0.07300568 0.0463769 0.03959315
000050 ab d5 c1 3d 6c 24 82 3d c4 ae 6c 3d 00 fe 8b 3e
       0.09464582 0.06354603 0.057783857 0.27342224
000060 24 b9 97 3e f8 fe 69 be 94 8e 80 3e 8b b5 30 be
       0.2963344 -0.22851169 0.25108778 -0.17256753
000070 7a 03 8a bd 35 e2 8d 3d 34 bc 72 3d fd ff 93 3d
       -0.06738944 0.06927911 0.059261516 0.0722656
000080 b7 6e 7b be e6 fb a0 3d e9 4c 38 3e 75 31 72 be
       -0.24553953 0.07860546 0.17998089 -0.23651679
000090 7c 52 47 be 3d 1f 61 be 8c bc 00 3d da a8 92 3d
       -0.19465059 -0.21984573 0.031429812 0.07161112
0000a0 56 b1 13 3e d8 b9 70 3d 47 a8 8f be e8 16 b7 3c
       0.14423117 0.058770984 -0.28058073 0.02234979
0000b0 b4 fc 79 be 0d 65 69 be a4 71 12 3e 19 76 95 bd
       -0.24412805 -0.22792454 0.14301163 -0.07297916
0000c0 8c b9 c5 3d a0 22 bf 3d 08 52 ac bd 99 98 4a be
       0.09654531 0.09332776 -0.08414084 -0.19784774
0000d0 73 25 ee 3d 11 08 e9 bd 71 1f 84 be 24 49 6d 3e
       0.116282366 -0.11378492 -0.25805238 0.23172432
0000e0 5d 4d f0 bd e1 8a 9b bd a5 8f 89 be e0 94 90 bd
       -0.11733506 -0.075948484 -0.26867405 -0.07059646
0000f0 a3 7b 37 bd b8 70 2f be 38 79 3f be 3e 1c 8c bd
       -0.044795644 -0.17132843 -0.18698585 -0.06841324
000100 59 0f 85 be 75 cb 87 bd b5 9c 83 be 1f 3a dc 3d
       -0.25988272 -0.06630603 -0.25705495 0.10753273
000110 cb 1e b3 3d 82 94 80 3d 7a f4 58 be 8b 02 1e bd
       0.08746108 0.062783256 -0.2118701 -0.038576644
000120 bb b3 47 3e dd 58 ff 3d be 21 09 3e 9b e2 9b bc
       0.19502155 0.12468121 0.13391778 -0.019028952
000130 97 51 01 3e a5 5b bc bd 0d d3 ad 3d 6b 82 84 3e
       0.1262878 -0.09197167 0.0848752 0.2588075
000140 46 47 8e 3e 69 01 93 3d f5 51 8a 3e 94 1e 8a be
       0.27788752 0.07178003 0.27015653 -0.26976454
000150 70 a4 90 be 1d 23 1e bc b2 18 7a be 0d 65 92 3e
       -0.28250456 -0.009651926 -0.24423483 0.2859272
000160 e7 4e 52 be cb 8c 82 3e b2 60 98 bd a1 c2 e5 3d
       -0.20537911 0.25498042 -0.07440318 0.11218763
000170 72 dd 13 3e c7 8c 77 be 7f 14 92 3e d2 9d 93 bd
       0.14439943 -0.24174796 0.28531262 -0.07207836
000180 2f aa 45 3e 0e ad 14 be af c9 25 be d8 21 3d 3e
       0.19303201 -0.1451914 -0.16190217 0.18469942
000190 1e 32 72 be eb b8 7e bd 81 fb cb 3d 20 d4 01 3e
       -0.2365193 -0.06218807 0.0996008 0.12678576
0001a0 9d 19 65 be 78 b9 41 3e 4c 7d 94 3e 1c 47 61 3e
       -0.22373052 0.18918407 0.29001844 0.21999782
0001b0 56 3c 5a be b1 b7 c7 bd 0f f7 84 3e 9c 74 26 3e
       -0.21312079 -0.09751833 0.2596974 0.1625542
0001c0 56 89 52 be f4 ee 56 3e 39 ef a5 bd b2 6d b4 3d
       -0.20560202 0.20989591 -0.08102269 0.08809985
0001d0 29 da 83 be fe 21 ff 3c 8e 96 0a bb 0f de 7a be
       -0.2575238 0.031144138 -0.0021146866 -0.24498771
0001e0 dd 45 8f bd 97 cf 31 bd 70 fa 52 3d f9 4a 6c be
       -0.06995747 -0.043410864 0.051508367 -0.23075475
0001f0 03 54 7e 3e 44 ca e9 3d 0c 11 70 be 66 ae ac 3d
       0.24836735 0.11415532 -0.23444003 0.08431701
000200 4e 14 85 3d 2e 2d e1 bd 9a fa 3d 3d 3a 2f 9a bc
       0.064980134 -0.109949455 0.04638157 -0.018821348
000210 02 68 c8 bd bf ce 9e 3d 1c 40 0f 3d 6a 7d 2f 3d
       -0.09785463 0.077542774 0.03497325 0.042844214
000220 a3 07 bd bd ec ae af bd 81 89 26 be 02 9f 24 3d
       -0.09229972 -0.085782856 -0.16263391 0.040190704
000230 c3 95 9e 3d f1 b2 a8 bd 8a 40 7b 3d a9 09 bd bd
       0.077434085 -0.08237255 0.061340846 -0.09230358
000240 ea 82 ec 3c d4 6f 8c 3d 74 73 b8 bd c2 24 73 3d
       0.028871018 0.06857267 -0.09006396 0.059361227
000250 fd ab 96 3d 66 5d 1b 3d fd de 6b 3d 56 18 4a 3d
       0.07357023 0.03793087 0.057585705 0.049339615
000260 c7 66 b3 3d 55 52 b5 bd fc 86 9e 3d bb 2c 31 3c
       0.087598376 -0.08853594 0.0774059 0.010813887
000270 42 67 f8 3c cb b2 85 3d 55 50 91 3d 2f 43 8a 3d
       0.030322675 0.06528243 0.070954 0.067510955
000280 d3 7a ab bd 35 f0 5a 3d 0f 80 93 3d 3d 1b 72 bd
       -0.08373036 0.053451736 0.072021596 -0.059108008
000290 4a 2e b3 bd ae 04 8f bd 74 f8 52 3d 52 b8 80 3d
       -0.08749063 -0.069833145 0.051506475 0.06285156
0002a0 fd b9 ab 3d e6 3c 84 3d 8b c6 b8 bd d9 0b 4e 3d
       0.08385084 0.06456928 -0.09022244 0.050304268
0002b0 e9 6d 9e bd ed 8e dd bd 08 c7 74 3d 80 c7 2c 3d
       -0.077358074 -0.108182766 0.059760123 0.042182446
0002c0 24 a1 9e 3d 88 aa 89 3d dc 27 e0 3c df 05 b2 bd
       0.07745579 0.067219794 0.027362756 -0.08692526
0002d0 5b c7 be 3d 9e 41 a0 bd 69 d4 91 bd a7 e5 af 3d
       0.09315368 -0.078250155 -0.07120592 0.085887246
0002e0 7e ef 4a 3d d4 b6 4a 3b b2 39 93 bd 4a 1c 1a be
       0.049544804 0.0030931728 -0.07188739 -0.15049854
0002f0 a1 37 36 3d a7 3f 02 be fa 85 00 be 9e 66 c7 3b
       0.044486646 -0.12719594 -0.12551108 0.006085231
000300 f5 83 c9 bd 43 23 68 bc ee af 57 bd bd 8a 6a 3d
       -0.09839622 -0.014168563 -0.052658014 0.057261217
000310 53 7a 48 3d ad e7 80 3d 36 02 a8 bd 06 f8 08 bb
       0.048944782 0.06294189 -0.08203547 -0.0020899787
000320 53 a1 a7 3d e8 ae 76 3d d1 08 09 3e 92 79 db 3c
       0.08185067 0.060225397 0.1338227 0.026791368
000330 f1 95 58 3d 00 6b d8 3c 1c b3 91 3d d8 78 ee 3d
       0.05287737 0.02641821 0.071142405 0.11644143
000340 63 d9 b1 3d d5 54 38 3d bb 9c ad 3d 90 7b c1 bd
       0.08684041 0.045002777 0.084771596 -0.09447396
000350 42 6a a4 bd dc e8 53 3d 80 e5 9d bd 70 0e cd 3d
       -0.080280796 0.051735744 -0.07709789 0.10012519
000360 64 09 d3 bd bb 71 b6 3d 74 a7 66 bd 40 5a 8e 3d
       -0.103045255 0.08908411 -0.05631204 0.069508076
000370 43 68 cb 3d 59 0b d1 bd f8 e2 a0 3d 50 be 4d 3c
       0.09931996 -0.102072425 0.07855791 0.012557581
000380 d2 3b b0 3d e7 aa 0a be ed 4c 0d bc 84 8c 80 3d
       0.0860516 -0.13541757 -0.008624298 0.06276801
000390 46 1b a9 bd da 70 25 3c fa 29 9b 3d eb 1f b7 3d
       -0.08257155 0.010097707 0.07576366 0.08941635
0003a0 86 61 ca bd 1c a8 a6 3d 9b 2e 93 3d f4 39 b2 3d
       -0.09881882 0.08137533 0.07186624 0.0870246
0003b0 d2 40 b8 bd 98 ef 4b 3d 42 33 84 3d e0 5b 5a 3d
       -0.089967385 0.04978904 0.06455089 0.053310275
0003c0 87 f5 e2 bd 69 ae b4 3d 6c e4 1b 3d db 65 85 3d
       -0.11081987 0.088223286 0.038059637 0.06513568
0003d0 8e 81 81 bd f1 14 80 3d c8 f4 9e bd a9 18 6b bd
       -0.06323539 0.06253994 -0.07761532 -0.057396565
0003e0 e2 a0 09 bc d7 83 92 3b 18 4d 8a 3c 54 94 ab bd
       -0.008400174 0.004471283 0.016882464 -0.08377901
0003f0 45 0c 47 3d 39 a2 7f 3d 56 d0 d6 bd 28 7f 83 3d
       0.048595686 0.062410567 -0.10488956 0.064207375

policy_net.0.weight f4 [128, 128]
000000 f9 d4 68 3e 3b 06 02 3e f7 ba 03 be 3c 20 5f 3c
       0.22737493 0.12697689 -0.1286429 0.013618525
000010 ba b2 29 3e c1 0b 26 3e 5d 2c bb 3e bc 13 e3 3d
       0.16572085 0.16215421 0.36557284 0.110877484
000020 dc e9 30 3e c3 da 0e 3e 74 73 00 3e 53 2d c6 bd
       0.1727671 0.13950638 0.12544042 -0.09676614
000030 8d e1 2e 3d d9 dd 1c 3e 2a 12 41 bc 09 93 38 be
       0.04269557 0.15319003 -0.011784116 -0.1802484
000040 06 08 f3 bd 85 ab b2 bc 45 d8 39 3e a3 d7 b5 3c
       -0.11866765 -0.021810303 0.18148907 0.02219755
000050 a3 e2 dd ba 8a b6 27 be 95 53 12 be ff e4 2a be
       -0.0016928505 -0.16378227 -0.14289697 -0.16688918
000060 48 95 9a 3d 27 36 5d bd fe b0 2b bd 54 d7 39 3e
       0.075480044 -0.05400672 -0.04191684 0.18148547
000070 55 fa 9f bd 32 c6 0a 3e 60 38 55 3d d8 44 0c be
       -0.07811419 0.13552168 0.052055717 -0.13698137
000080 b3 84 0c 3e 6d 99 36 3e 42 bc c6 3d 4c db e3 3d
       0.13722496 0.17831965 0.09703876 0.11125812
000090 98 c5 a6 bd 81 4e eb bd d1 7f 42 bd 6f 3b 7b 3d
       -0.08143157 -0.11489583 -0.047485176 0.061335977
0000a0 fb 52 85 bc 9e fc 0d 3e 1b 57 22 3e 8d 27 71 be
       -0.01627492 0.13865897 0.1585354 -0.23550244
0000b0 f0 ae 17 3e bf e4 65 3c 03 c4 df bd 15 64 23 be
       0.14812827 0.014031588 -0.10926058 -0.15956147
0000c0 6b 40 b2 bd c1 3c f7 3d ff 4c 31 3e f5 e5 a4 3c
       -0.08703693 0.12072135 0.17314528 0.020129183
0000d0 2e cd 19 3e 2d f4 fa 3c fc fa 3c 3e 06 88 63 3b
       0.15019676 0.03063401 0.18455118 0.0034718527
0000e0 79 67 cc 3d 92 06 eb bd 8f 0e 6f 3e 48 21 c0 3c
       0.09980673 -0.114758626 0.23345397 0.02345337
0000f0 9c 86 c1 3b 6e 34 cc 3e 2a 30 60 be c0 9e 57 bd
       0.0059059393 0.3988375 -0.21893373 -0.05264163
000100 cf a0 0c 3e 64 02 c1 bd 35 e7 3a 3d b9 4a dd 3c
       0.13733219 -0.09424284 0.045630652 0.02701317
000110 3b fb 9e 3c 89 b4 90 3c c3 ee 14 3e 63 75 96 3e
       0.019406905 0.01766421 0.14544205 0.29386434
000120 c0 02 c3 3d cf b5 b9 3c 28 38 1d 3e ab 91 9c 3d
       0.09522009 0.0226697 0.15353453 0.076449715
000130 b2 46 10 bd 96 15 aa 3d fb b3 48 be c9 8c cd bd
       -0.03522367 0.083048984 -0.19599907 -0.10036618
000140 99 c4 1d 3e 97 13 a8 bd 64 4d 99 3e 1c 79 8d 3d
       0.15407027 -0.082068615 0.29941857 0.069078654
000150 7f ec 72 3e 01 40 3a be 5e 0d 17 3b c3 ca 12 be
       0.23723029 -0.18188478 0.002304874 -0.1433516
000160 7c 99 62 bd 17 9e d7 bc ec f7 7a be 3d a2 01 3f
       -0.055322155 -0.0263205 -0.24508637 0.5063818
000170 e4 1b 28 3d f5 ee 32 3d 5a 74 18 be e2 4a 7e 3d
       0.041042224 0.04368492 -0.14888135 0.062083133
000180 2a 58 17 39 c2 2d 76 3e 13 c6 73 3e af 15 65 bd
       0.00014433326 0.24040893 0.23806028 -0.055928882
000190 58 0b bd 3e 05 71 0f bd e0 1f 50 3e 49 2d 11 bd
       0.36922717 -0.035019893 0.2032466 -0.035443578
0001a0 e6 79 d6 3d 18 a4 ad bd 60 be 1e 3e 05 8c bd 3d
       0.10472469 -0.08478564 0.1550231 0.09255222
0001b0 9f 68 31 be 8f 8f 43 bc d0 cf 14 be a8 8b ba 3b
       -0.17325066 -0.0119360825 -0.14532399 0.005692918
0001c0 41 28 6c 3d 24 9b 9b 3e 21 e7 7c 3d a7 ef 77 3d
       0.057655577 0.303918 0.06174386 0.060531285
0001d0 65 a1 69 be 2a 85 5d 3d 86 01 f2 3c ef 42 ab bd
       -0.22815473 0.054082073 0.029541742 -0.08362376
0001e0 21 c5 06 3e e2 26 fe 3d 75 29 65 be d0 f3 cc bb
       0.13161136 0.1240976 -0.22379096 -0.0062546507
0001f0 d7 b4 14 3d de ea a4 3e 27 08 bc 3d 35 ba 25 3e
       0.036305275 0.3221044 0.091812424 0.16184314
000200 bc 62 61 3d 5c 17 12 3e 10 7d 9b bc 3e 2f 17 3d
       0.0550258 0.14266723 -0.018980533 0.036910288
000210 1a 29 46 3e 1c 70 2d be d1 56 3c be 49 6e 9b 3d
       0.19351617 -0.16937298 -0.18392493 0.075893946
000220 3b e9 a9 3d bf 4b f8 bd cd 6d 7f bd 8f 7f a7 3e
       0.08296438 -0.121238224 -0.062360574 0.32714507
000230 eb 88 8f 3d be 90 89 3d 5e 99 be bd 33 d9 8d 3d
       0.07008537 0.067170605 -0.09306596 0.06926193
000240 05 a7 9a 3e 09 b0 07 3d 9b 10 4b bd ad 2b 04 be
       0.3020555 0.033126865 -0.049576383 -0.12907286
000250 26 b3 e3 3d 4d ab 33 3e b6 f2 fb 3d c2 18 69 3d
       0.11118154 0.17545815 0.12302153 0.056908377
000260 8b b9 1a bd 44 c3 ca bc cb a1 39 be b7 d0 3b bc
       -0.037774604 -0.024751313 -0.18128125 -0.011463336
000270 f1 a5 d2 bd 1c 19 e1 bc 54 7f d5 bd ba 39 48 bd
       -0.10285557 -0.027477793 -0.104246765 -0.048883177
000280 09 e4 27 3e e9 4d 0b bc bb 33 c4 3d 60 02 4a 3d
       0.16395582 -0.008502462 0.09580179 0.04931867
000290 12 cd 87 3e 80 d0 57 3d 8f 98 8c 3e 86 52 29 bd
       0.26523644 0.052689075 0.27460143 -0.041338466
0002a0 f0 10 d0 3d e1 84 fc 3d ba d7 26 be 4e da 3c 3e
       0.101594806 0.12330032 -0.1629323 0.18442652
0002b0 df 19 d0 3d 29 8c c2 bd 20 40 5f 3e 56 10 44 be
       0.101611845 -0.0949939 0.21801805 -0.19146857
0002c0 73 28 0e bd 8a 28 b9 bd 32 a3 5c be 92 b5 06 bd
       -0.034706544 -0.09040935 -0.21546629 -0.032888003
0002d0 72 6e ba bd 8c 35 24 be f0 fc 85 3d 23 cc da bd
       -0.09103097 -0.16036052 0.065423846 -0.10683467
0002e0 62 ad 6c 3d 84 1a b1 bd 1d 71 87 3e 0e 49 1c 3e
       0.05778254 -0.086476356 0.26453486 0.15262243
0002f0 7b 23 5a 3e 91 ac e6 3c 82 a5 9b 3e a5 3f 72 be
       0.21302597 0.028158458 0.3039971 -0.23657091
000300 3d 2d 14 3d 60 84 15 bd 0d a2 b0 bc 5f ab 53 3d
       0.036175955 -0.036503196 -0.021561647 0.051677104
000310 7c 4d d4 3d 1d bc 00 3d ac 9b 95 bc e1 ef 0a 3e
       0.103663415 0.0314294 -0.018262707 0.13568069
000320 5f 74 09 3e dc 18 5a 3e 0f 86 98 3d b1 30 12 be
       0.13423298 0.21298546 0.07447445 -0.14276387
000330 13 a7 a3 bc ef 03 11 be e7 16 a0 bd cc b5 62 3d
       -0.019977128 -0.14161657 -0.07816868 0.055349156
000340 ce 4b c7 3e 2e 45 fc 3d 90 33 47 bd 80 db 17 3d
       0.38925022 0.123178825 -0.04863316 0.037074566
000350 c3 cb 93 be 88 d7 fa 3d 6f 32 59 3c 0f f4 05 bd
       -0.28866395 0.122481406 0.013256653 -0.032703456
000360 8c 98 6c 3d a3 6b 05 be 40 a5 4d bc e9 66 28 be
       0.057762668 -0.13029341 -0.012551606 -0.16445507
000370 1f 86 7b bd 08 9b 0f be 93 31 62 3e 1f 05 40 3e
       -0.061407205 -0.14023983 0.22089224 0.18751954
000380 cc ba 52 bb dc 98 05 be 45 a7 4a be 59 e2 1d be
       -0.0032154797 -0.13046592 -0.19790371 -0.15418376
000390 f9 8e 48 bd 2f b1 95 3d d4 ce 84 bd 6e 0c 28 bb
       -0.048964474 0.07309186 -0.06484762 -0.0025642174
0003a0 b7 78 8e bc 10 20 17 bd 7b 2d ff 3c 91 16 d6 3d
       -0.017391546 -0.03689581 0.031149616 0.10453523
0003b0 af b1 94 3d 49 a1 90 bd 48 77 ca 3e dd 80 89 3e
       0.07260453 -0.07062013 0.3954413 0.26856127
0003c0 5c a2 d9 3d 7f d9 3b 3c c4 31 24 be 1c 59 2c be
       0.10626671 0.011465429 -0.16034609 -0.16830868
0003d0 43 75 64 be 0b 2f c3 bd c3 46 12 3e e4 b0 a3 3d
       -0.22310357 -0.09530457 0.14284806 0.079927236
0003e0 48 ec e4 bc 84 ec 92 3d 2c e8 10 be b5 81 7d 3e
       -0.027944699 0.07174018 -0.14151067 0.2475651
0003f0 ac ef ac 3c 23 af ab bd bb 99 74 bd 4a 6f 86 be
       0.021110378 -0.08383014 -0.05971692 -0.26256782

policy_net.0.bias f4 [128]
000000 39 0f ae 3d 3b 40 7f 3d 74 ea 86 3d 79 c3 64 3d
       0.08498997 0.062317114 0.06587687 0.05585048
000010 4e 94 45 3d 3f 68 d4 3d ac 39 4b 3d a1 e0 4f 3d
       0.048237137 0.10371446 0.049615547 0.050751332
000020 90 22 a4 3d 13 f3 5d 3d 9f 18 ae 3d 8f e6 69 bd
       0.08014405 0.05418689 0.0850079 -0.057104643
000030 44 06 b6 3d 58 2d 6e 3d cc d3 6b 3d 3b 39 9a 3d
       0.08887914 0.058148712 0.057575032 0.07530447
000040 e7 fb fe 3c 94 a6 8d 3d 3c 3f 69 3d d9 c9 49 3d
       0.031125976 0.06916538 0.05694507 0.049264763
000050 62 41 99 3d 1e 33 7b 3d 81 ad 5e 3d f9 63 82 3d
       0.07483174 0.061328046 0.054364685 0.063667245
000060 9a e7 a8 3d e3 77 95 3d ba e8 b7 3d 8c 43 95 bb
       0.082472995 0.07298257 0.08979936 -0.0045551714
000070 c0 7a 6a bd a7 24 7f 3d cc fb 7c 3d b2 68 94 3d
       -0.05724597 0.062290814 0.06176357 0.072465315
000080 bd 46 8c 3d 4d b7 86 3d ba 6b ab 3d b8 82 87 3d
       0.0684943 0.065779306 0.083701566 0.066167295
000090 d7 47 6e 3d 6e ae 65 3d ea de 4e 3d f4 03 7f 3d
       0.05817398 0.056074552 0.050505556 0.06225963
0000a0 4d ce bf 3d 91 a8 50 3d f1 5f b5 3d ab 82 47 3d
       0.093655206 0.050942007 0.0885619 0.0487086
0000b0 46 ca 2d 3d b2 9e 9b 3d 07 4d bd 3d 15 2e 40 bd
       0.04242923 0.07598628 0.092432074 -0.046918947
0000c0 e0 bf 99 3d 0b 25 89 3d 67 5a d9 bc 08 2e 89 3d
       0.075073004 0.066965185 -0.026532365 0.06698233
0000d0 7c 8d 8d 3d fe 3a 4f 3d d9 c4 8c 3d 39 bc a0 3d
       0.06911752 0.05059337 0.06873483 0.078484006
0000e0 a0 47 5f bc 20 86 0b bd 32 da 6a 3d bd ef a2 3d
       -0.013627917 -0.03406346 0.057336994 0.07955883
0000f0 ad 5b a7 bd 2a ab 89 3d d0 6c bd 3d 3d 57 87 bd
       -0.08171783 0.067221 0.0924927 -0.06608436
000100 51 60 84 3d ef 16 f5 bc ca 10 63 3d 64 60 95 3d
       0.064636834 -0.029918162 0.055435933 0.07293776
000110 f7 80 7f 3d 09 86 8d 3d fa 2c 78 3d 7b 61 2d 3d
       0.06237885 0.06910331 0.060589768 0.042329293
000120 7d 69 b8 3d d9 cd a2 3d e7 49 96 3c e3 7f fa 3c
       0.09004495 0.079494186 0.018345786 0.03057856
000130 84 b0 1f 3d 5f 8f 92 bc db 91 90 3d cb ef b0 3d
       0.038986698 -0.01789063 0.0705907 0.08639487
000140 6e a4 c0 3d 5e 39 81 3d 93 62 c5 3d f0 1d 94 3d
       0.094063625 0.0630977 0.09637942 0.072322726
000150 36 c9 9e 3d 55 44 21 bd a0 54 9b 3d 4e f0 c7 3d
       0.07753222 -0.039371807 0.075845 0.09762631
000160 dd 3c a1 3d dd 90 53 3d 8f 8e c1 3c e3 25 ae 3d
       0.07872937 0.051651824 0.023627548 0.0850332
000170 73 59 2a 3d 94 0b 8f 3d 45 94 b1 3d ae ce 67 bd
       0.04158921 0.0698463 0.08670858 -0.05659359
000180 a8 b2 c6 3d d9 ef ae 3d 48 92 54 3d 75 ff a7 3d
       0.09702045 0.08541841 0.051897317 0.082030214
000190 30 26 7c 3d d7 83 80 bd 2e 92 9f 3d c0 8e 84 3d
       0.061559856 -0.062751465 0.077915534 0.0647254
0001a0 27 ce 9c 3d cb 15 c0 3d 68 04 d8 3d 03 b2 cc 3d
       0.07656508 0.09379157 0.105477154 0.099948905
0001b0 a4 39 4b 3d 5c d9 39 3c a0 c2 ce 3d f2 d5 be 3d
       0.049615517 0.011343326 0.100957155 0.093181506
0001c0 86 34 83 3d 9a e6 e2 3d 7b 2a 15 bd ef f3 6a 3d
       0.064065024 0.1107914 -0.036417466 0.05736154
0001d0 5c ed 80 3d 0f eb ee bb 99 a8 90 3d fd 81 a3 3d
       0.06295273 -0.0072912048 0.070634075 0.07983778
0001e0 15 6c 24 bd f1 78 0a bd cb 67 85 3d cc 94 65 3d
       -0.040142138 -0.033806745 0.065139376 0.056050107
0001f0 9e a7 d2 3d fb ed a7 3d 60 28 87 3d 38 94 49 3d
       0.10285877 0.08199688 0.06599498 0.049213618

features_extractor.extractor.1.weight f4 [128, 40]
000000 94 9b 3d 3e 96 99 ce 3f e0 22 52 3f 2b 84 b8 3d
       0.1851638 1.6140621 0.82084465 0.09009584
000010 e3 6e 63 3d dc 2d ce 3f 56 f9 09 3f ba a3 8d 3e
       0.05552567 1.6107745 0.5389608 0.27663976
000020 0f b3 47 bc c9 96 e4 3f e4 39 27 3f ff f9 99 3e
       -0.012188687 1.7858516 0.6532271 0.30073544
000030 f2 b9 ed bc 5e 21 b6 3f 46 71 18 3f 0b f3 0f 3e
       -0.02901933 1.4228933 0.5954784 0.14057557
000040 fe 3b 06 3d a2 4e ad 3f a9 79 17 3f 93 fb 73 3e
       0.032772057 1.3539622 0.59170014 0.23826437
000050 20 0d bc 3d ea 50 ca 3f 60 47 7d 3f ac a4 95 3d
       0.09182191 1.5805943 0.98937035 0.07306799
000060 e9 71 af 3e eb 67 bc 3f a9 12 88 3f 0f bf 8e 3e
       0.34266594 1.4719213 1.0630695 0.2788014
000070 84 8c 85 bc 71 22 92 3f e2 d7 8e 3f 95 67 22 3e
       -0.016302355 1.1416761 1.1159632 0.15859826
000080 98 47 f7 3d fe 2f 9a 3f f5 cf 9c 3f 57 12 51 3e
       0.12074202 1.2045896 1.2250963 0.20417152
000090 04 a4 32 3e 51 e9 c7 3f 2a 85 a2 3f 63 d8 7b 3d
       0.1744538 1.5618078 1.2696888 0.06148566
0000a0 29 a4 6a 3d 2b d6 bb 3f 13 22 25 3f 2b ac cc 3e
       0.05728546 1.4674734 0.6450512 0.39975104
0000b0 ee 17 4a bc e8 43 c2 3f 69 e4 24 3f b6 d4 78 3e
       -0.012334807 1.5176973 0.64411026 0.24299893
0000c0 46 6b c0 3e 07 e6 88 3f af ed bf 3e f4 aa 66 3e
       0.37581843 1.0695199 0.37486026 0.22526151
0000d0 df 11 f0 3c 63 23 ad 3f 49 f9 a9 3e e9 f3 da 3d
       0.029305397 1.3526424 0.33198002 0.106910534
0000e0 18 db eb 3e 62 78 96 3f 7b 96 e9 3e f5 48 3e 3e
       0.46065593 1.1755488 0.4562262 0.18582518
0000f0 3c 04 21 3e 12 7e 8e 3f d7 0f d0 3e bb 3b b2 3b
       0.15724272 1.1132224 0.40637085 0.0054392493
000100 d6 ec 1b 3e f8 d9 84 3f d8 77 ef 3e a9 b7 e7 bc
       0.15227064 1.0379019 0.4677112 -0.028285818
000110 10 3b 9a 3e 82 58 88 3f 83 57 c0 3e e4 8b 7f 3d
       0.30123186 1.065201 0.37566766 0.06238927
000120 fe 73 46 3e 54 68 9e 3f 09 0c 0a 3f cc 24 25 be
       0.19380185 1.2375588 0.53924614 -0.16127318
000130 36 94 92 3e 2e 25 8b 3f 5d 45 00 3f 56 7b dd bc
       0.286287 1.0870721 0.5010584 -0.02703635
000140 76 8a 90 bd 84 00 c6 bf 68 e7 45 bf 4d 0d 09 be
       -0.07057659 -1.5468907 -0.7730622 -0.1338398
000150 59 e4 59 3d d8 d9 b0 bf 92 81 12 bf 32 43 3b 3e
       0.053196285 -1.3816481 -0.5722896 0.18287352
000160 9a 4d 3c 3d 84 7b b8 bf 0f 62 52 bf 27 0c 25 3c
       0.045972444 -1.4412694 -0.82180876 0.010073698
000170 90 61 86 3e 9a bd a3 bf e8 a5 0d bf 5d 40 30 bd
       0.2624631 -1.2792237 -0.5533128 -0.04303013
000180 f3 fa 6f 3c 72 12 b2 bf a3 08 20 bf 25 83 f8 3d
       0.014647233 -1.3911879 -0.6251318 0.12134389
000190 35 8f fc 3d 78 f3 a2 bf 17 56 53 bf 9f f9 25 bd
       0.12332002 -1.2730551 -0.8255324 -0.04052126
0001a0 f3 84 cd 3d a6 3c 97 bf ef d5 6e bf 64 36 3d 3d
       0.10035124 -1.1815383 -0.93295187 0.04619445
0001b0 24 3e 35 bd b0 41 bd bf 96 28 90 bf c5 d8 81 3e
       -0.044248715 -1.4785671 -1.1262386 0.25360695
0001c0 df d3 f6 bd 60 09 b3 bf ad e3 8a bf 81 a8 e0 bc
       -0.1205213 -1.3987236 -1.0850731 -0.027424099
0001d0 48 07 fd 3d 3b 18 ad bf 62 50 a5 bf 77 bf 05 3d
       0.123549044 -1.352302 -1.2915156 0.0326533
0001e0 76 dc 61 3e d6 da b6 bf 98 bf 3a bf f7 e3 24 be
       0.22056755 -1.4285533 -0.729486 -0.16102587
0001f0 e1 ae 18 bd a7 1e bf bf 9d 3d 44 bf cb 9d 99 3c
       -0.037276153 -1.4931229 -0.76656514 0.018752
000200 20 db a6 3d 72 7f a8 bf 6b 2a 03 bf 07 bf be bd
       0.081472635 -1.3163893 -0.512366 -0.09313779
000210 5a 9b 8f 3c 4f ba a6 bf 2e 84 51 bf 96 10 b0 3d
       0.017530132 -1.3025607 -0.81842315 0.085969135
000220 b3 7d 07 3e 35 58 ab bf d8 99 46 bf 12 f0 8c 3d
       0.13231544 -1.3386294 -0.77578497 0.06881727
000230 f6 57 68 3d 59 8d 96 bf e7 c1 5c bf d2 58 b3 3d
       0.05672451 -1.1761886 -0.8623337 0.087571755
000240 6e e9 7a bc c8 43 ca bf f4 97 89 bf 3a cd 60 3c
       -0.015314443 -1.5801935 -1.0749497 0.013720805
000250 c6 98 36 3d f5 6d 9c bf 73 d4 8d bf 19 eb 0f bb
       0.04457929 -1.2221056 -1.1080459 -0.0021960197
000260 b1 2a 71 3d 4f 13 b2 bf 5c 66 92 bf 0b f9 7f 3d
       0.058878604 -1.3912143 -1.1437488 0.062493365
000270 3e 0a 9b 3d 4d 2e c4 bf 5d e9 96 bf 2e e0 8a 3d
       0.07570313 -1.532663 -1.1789967 0.0678104
000280 c5 24 6a 3e ec b8 9c 3f 55 20 29 3f ab 36 dd 3e
       0.22865589 1.2243934 0.6606496 0.4320577
000290 62 6a d4 3d af 43 8f 3f 17 84 92 3e f6 05 c7 3e
       0.103718534 1.119253 0.28616402 0.38871735
0002a0 92 79 62 3d ee 19 91 3f 97 a0 c6 3e 15 0b 9d 3e
       0.05529172 1.1336038 0.38794395 0.30672517
0002b0 28 5b 0a 3e cb 98 a1 3f 6c 3a 8d 3e 70 8b d3 3d
       0.13511336 1.2624754 0.27583635 0.1032933
0002c0 58 47 75 3e 19 65 8d 3f 5a c8 0e 3f a3 f3 3d 3e
       0.23952997 1.1046478 0.5577446 0.18549971
0002d0 28 60 fb 3d 80 e2 8e 3f 9a b1 c3 3e 17 9c d1 3c
       0.122742 1.1162872 0.38221437 0.025587125
0002e0 e4 62 90 3e b9 6c 92 3f e7 41 c9 3e c1 6d 11 3e
       0.28200448 1.143943 0.39308092 0.14202024
0002f0 f1 85 9f 3e 39 0d 85 3f 8d 31 02 3f 03 c8 3c 3e
       0.31156877 1.039466 0.5085686 0.18435673
000300 6f 61 ae 3e 3c a2 7d 3f 87 1e 37 3f 29 ce b1 bc
       0.3405871 0.99075675 0.71530956 -0.02170475
000310 7a 39 8a 3e 43 ae 80 3f 41 c6 dd 3e eb ce 25 be
       0.26996976 1.005318 0.43315318 -0.16192214
000320 1d c2 96 bb d8 6f 9b 3f ef 29 3f 3f 62 88 69 3e
       -0.004600777 1.2143507 0.7467336 0.22805932
000330 af 38 6f 3e 71 15 8f 3f 3a 9e c9 3e d5 67 97 3e
       0.23361467 1.1178418 0.3937853 0.29571405
000340 d9 09 39 3e 7c d4 9b 3f ec fd 12 3f 1d 93 44 3e
       0.18070163 1.217422 0.57418704 0.19196744
000350 57 82 89 3d 94 62 6a 3f f9 a7 01 3f b8 13 1f 3f
       0.067143135 0.9155667 0.5064693 0.62139463
000360 54 a1 93 3e fd 66 a8 3f d4 39 c1 3e f7 d3 6a 3d
       0.2883402 1.315643 0.37739432 0.05733105
000370 3d 97 9d 3d 4a c1 72 3f 05 ac a7 3e 3f 00 8d 3d
       0.07694862 0.94826186 0.32748428 0.068848126
000380 b2 c3 98 3e 02 23 87 3f 1f f0 da 3e e4 38 a3 3c
       0.29836804 1.0557559 0.42761323 0.019924589
000390 bd 4b 2b 3e 75 fd a5 3f f1 a6 0c 3f cb 44 07 be
       0.1672811 1.2967974 0.5494223 -0.13209836
0003a0 cf c5 67 3d 83 0c 92 3f 77 6f 10 3f 73 3c 53 bd
       0.05658513 1.1410068 0.5642008 -0.05157132
0003b0 09 c6 01 3f e5 aa 98 3f 64 f7 16 3f cc 0d b3 3d
       0.506928 1.1927153 0.5897124 0.08742866
0003c0 e8 4a b4 bc 17 d4 c4 3f e7 1f 54 3f 43 1c 43 bd
       -0.022008374 1.5377225 0.8286118 -0.047634374
0003d0 d6 f2 5a 3d 08 3b d2 3f 4a 04 17 3f a8 44 53 3e
       0.053454243 1.6424265 0.5899092 0.20631659
0003e0 de 36 02 be 13 f4 ac 3f 4b 12 1c 3f 1d 0a 7f 3e
       -0.12716243 1.3511986 0.6096541 0.24906202
0003f0 4f 45 8f 3d f1 99 9a 3f e7 79 53 3f d5 a6 53 3e
       0.069956414 1.2078229 0.82607883 0.2066911

features_extractor.extractor.1.bias f4 [128]
000000 41 bc 39 bd de b6 82 3e 5a 84 6a 3e 39 bf 80 3e
       -0.04534555 0.25530142 0.2290205 0.2514589
000010 ad 1b 8b 3e a8 f5 8d 3e b4 ce 83 bd f6 b2 a2 3e
       0.27169552 0.27726483 -0.0643591 0.3177716
000020 45 13 8e 3e b8 a2 b0 bd 47 f5 d5 bd 8f b9 86 3e
       0.27749076 -0.08624786 -0.104471736 0.26313445
000030 f3 b5 e2 3d e8 2f d5 bc 3a 24 31 3e d2 f9 95 3e
       0.1106986 -0.02602382 0.17298976 0.2929216
000040 a0 00 b0 3e 86 20 96 3e 59 3b 69 3e 45 d5 9c 3c
       0.34375477 0.29321688 0.22776546 0.019144664
000050 95 6f 99 3e c1 b5 36 3e fd 0d 8f 3e 89 b7 6b 3e
       0.29967943 0.17842771 0.2794036 0.23019232
000060 d7 5a 54 bd 86 bb 7b 3e a5 67 4b bd d3 9f 6c 3e
       -0.051844444 0.24583253 -0.04965939 0.23107843
000070 ee 78 59 3e bc 9d 86 3e 5a bb e1 bd be 24 6f 3e
       0.21237537 0.26292217 -0.110220626 0.2335386
000080 d9 33 3c 3d 78 dc bf bd 6d be da 3d e2 bb c4 3d
       0.045947883 -0.09368223 0.10680852 0.09606148
000090 bf 30 88 3e 1c 20 5d bd 18 24 76 3e f5 8d ef bd
       0.2659969 -0.0539857 0.24037206 -0.11696998
0000a0 77 91 85 3e 1b 41 98 bc f1 4d 82 3e 09 5d 7e 3e
       0.26087543 -0.018585732 0.2545009 0.24840178
0000b0 75 26 a9 bd 07 38 80 3e 55 88 8f 3e 90 e0 9d bd
       -0.08259288 0.25042745 0.280337 -0.077088475
0000c0 9a 9b c5 bc b4 a9 66 bc 04 ac 5d bd 80 96 72 3e
       -0.024122048 -0.014078546 -0.054119125 0.23690224
0000d0 a3 39 25 bd 6b 0f 38 3e 70 2a 58 bd 64 12 82 3e
       -0.04033817 0.17974631 -0.052774847 0.25404656
0000e0 83 45 88 3e 49 52 76 3e d5 63 87 3e ff de 73 3e
       0.26615533 0.24054827 0.26443353 0.23815535
0000f0 76 a8 8d 3d 81 49 cf 3d e1 47 90 3e ce 2c b0 bd
       0.06916897 0.10121442 0.2817984 -0.08602296
000100 e7 58 80 3e 01 95 86 3e db 9c 8e 3e cf ad 85 3e
       0.25067827 0.26285556 0.27854046 0.26109168
000110 68 43 6e 3e 2a ef bb bd e9 06 69 bd 81 dc 8b 3e
       0.23267901 -0.09176476 -0.056891356 0.2731667
000120 66 0f 69 bd 03 6c 4e 3e c2 53 ab bd 79 12 b7 bd
       -0.05689945 0.2015839 -0.08365585 -0.0893907
000130 29 d4 87 3e 7c 0c cf bd ad 4b 3d 3c a7 0c 44 3e
       0.26529053 -0.10109803 0.011553687 0.19145451
000140 c5 bd 6a 3e 74 30 4e 3e 1d f3 43 3d 61 3f df bc
       0.22923954 0.20135671 0.047839273 -0.027251901
000150 18 7d 23 3d 1e 89 3e 3e 4f e4 7c 3e ae 98 8c 3e
       0.03991422 0.18606994 0.24696468 0.27460235
000160 79 98 67 3e ff 80 af bd f1 3f 0d be 8c e2 00 bd
       0.22616757 -0.08569526 -0.13793923 -0.031466052
000170 82 ad 35 bd 0b 4c 74 bb 9b 73 8a 3e 9a db 85 3e
       -0.044354923 -0.003727677 0.27041325 0.26144105
000180 66 7f 88 3e 5c 0c 9d bc 44 7d 72 bd 50 b0 9a 3e
       0.26659697 -0.019170932 -0.059201494 0.3021264
000190 ca 1b b7 bd 97 6f 05 bd 46 dc ba 3c 99 da b4 bd
       -0.08940847 -0.032577123 0.022810113 -0.08830757
0001a0 c4 e6 89 3e d1 0a 33 3e c7 78 59 3e 6f 07 ca 3d
       0.26933873 0.17484595 0.21237479 0.09864699
0001b0 89 a3 70 3e 81 ff 2f bd 25 55 a5 bd 38 ba 65 3e
       0.23499884 -0.042968277 -0.08072881 0.22434318
0001c0 e8 45 4f 3e 4b 97 34 bd 55 9d 44 bd 72 90 2c 3d
       0.20241511 -0.044089597 -0.048001606 0.04212994
0001d0 22 f5 a2 bd de 53 84 3e 24 1a 53 3d 31 a6 38 3d
       -0.079569116 0.25845236 0.0515386 0.045080367
0001e0 92 d0 85 3b 11 2d 5a 3e d6 63 9f 3e b3 b9 44 3e
       0.0040837014 0.21306254 0.31130856 0.19211464
0001f0 02 4d 7b 3e cd 03 13 3e b8 d5 46 3e 6e 56 97 3e
       0.24541095 0.14356919 0.19417465 0.29558128
