congestion_control/data/embed_projection.pt (torch, 64930 bytes, 6 tensors)

embedding_projection.0.weight f4 [100, 128]
0.014981909 0.085372485 0.04482449 0.020909652 -0.044135652 -0.076959975 -0.017709589 -0.051464472
-0.038299084 0.07895916 0.026030906 0.038550217 -0.037808526 -0.041395716 -0.070234336 0.019790474
0.04746597 0.027983578 0.08149245 -0.030677805 -0.058390234 0.06941059 0.07676458 -0.006846218
-0.023119895 -0.047153734 -0.010077522 0.075512245 -0.019366445 -0.047765825 0.02725918 0.05865422
0.051101167 0.056555413 0.050463695 -0.07583295 0.005244016 -0.07971177 -0.05895286 0.007922385
-0.013306308 0.04152223 0.016345253 0.04732777 0.0800395 -0.054567125 0.02098306 0.031850625
-0.010546142 -0.00637568 -0.074551076 -0.007269594 0.031258874 0.008077749 0.038721267 0.028830657
0.08663453 -0.08106163 0.08183077 -0.07306857 -0.017055048 0.0008926808 -0.032795694 0.015693147
-0.0508044 0.016345495 0.06559747 0.0322353 -0.0076822955 0.05929992 0.063106276 -0.07793527
-0.028195746 -0.06339566 0.015383072 0.06659895 -0.030903881 -0.08339995 -0.058070537 -0.0015473373
0.0134454025 -0.07129124 0.015718814 0.018363835 -0.04180983 0.015311254 -0.03797353 -0.05596699
-0.0613736 -0.07186479 0.03639061 0.0011978556 0.030109286 0.021377767 0.05542735 0.015506015
0.040204544 -0.016836317 0.028235259 0.07163689 -0.045246273 -0.081441395 0.027827172 0.0320097
-0.037714697 0.08023345 -0.07266008 -0.05566906 -0.0025230052 -0.081632026 0.020773401 -0.047899872
0.07518907 0.04111229 0.07839571 -0.01935614 0.07399328 0.08589582 -0.021114137 0.054218423
0.011409215 0.054266945 -0.07929435 0.02429516 -0.086604826 0.040056437 -0.07298157 -0.011109308
0.03694537 -0.0040592453 0.036641642 0.08135112 0.01880371 -0.06972027 0.04677662 -0.063345015
-0.015575197 -0.07406757 -0.08562769 0.047011644 -0.065483786 -0.0044284393 -0.09216436 -0.07478048
-0.05826213 0.030646563 0.04961547 -0.04875638 -0.062158015 -1.6852122e-05 0.06273092 0.018408664
-0.065660566 -0.0074062855 -0.00033072924 -0.0067129037 0.0419588 0.011844943 0.06346365 -0.0878522
-0.08871251 0.0108082285 0.04310922 0.022022959 0.061918974 -0.042438842 -0.05079405 -0.019061781
0.05392541 -0.09222253 0.06554535 -0.022596667 -0.06265725 -0.07493639 -0.023561103 -0.00016867803
0.0014829661 -0.046493907 -0.03364431 0.008389453 0.047080643 -0.07719259 0.0027877851 -0.016189916
-0.08772629 0.03919681 -0.07848924 0.045050878 0.024695968 -0.07191291 -0.0035979059 0.0058409115
-0.014295955 -0.09401945 -0.08398779 -0.05616645 0.08040403 0.07029123 0.0048365425 -0.10648184
0.043157406 -0.019798145 -0.014505796 -0.052127995 0.06477075 0.0008914183 -0.047837127 0.029601933
-0.05786591 -0.06272526 0.059710063 0.050550617 0.017531505 -0.045411453 0.025121128 0.010805565
-0.0675995 -0.078413546 -0.013447189 0.008367337 -0.05398188 0.06801892 -0.023630893 0.045124326
-0.07699138 0.0055791405 0.042158186 0.06129199 -0.064689636 0.03668795 0.004255435 0.07609765
0.041078858 -0.06406297 -0.028073024 0.06444127 0.028076086 -0.0029232837 -0.004486476 0.033296287
0.07131774 -0.049127318 0.06382444 0.042703766 -0.02439963 0.065556645 -0.062833026 0.08515135
0.073998936 0.074693836 0.04745052 0.0053824545 -0.060834236 -0.011765592 -0.029244157 0.02205615
00000000: ae76 753c c5d7 ae3d e299 373d b84a ab3c
00000010: 96c7 34bd 319d 9dbd b313 91bc 69cc 52bd
00000020: 80df 1cbd 57b5 a13d c43e d53c d5e6 1d3d
00000030: 1ddd 1abd 8e8e 29bd 05d7 8fbd a21f a23c
00000040: ad6b 423d d13d e53c 83e5 a63d 0550 fbbc
00000050: 992a 6fbd 2427 8e3d c036 9d3d 3d56 e0bb
00000060: ef65 bdbc 4624 41bd 311c 25bc 2aa6 9a3d
00000070: 61a6 9ebc 19a6 43bd a54e df3c 683f 703d
00000080: 754f 513d a6a6 673d 05b3 4e3d 4e4e 9bbd
00000090: ffd5 ab3b ed3f a3bd 8e78 71bd e4cc 013c
000000a0: b302 5abc 3713 2a3d 7be6 853c c4da 413d
000000b0: c0eb a33d c781 5fbd abe4 ab3c cd75 023d
000000c0: bac9 2cbc 15eb d0bb 3cae 98bd c635 eebb
000000d0: 4e09 003d 8958 043c 319a 1e3d 452e ec3c
000000e0: 726d b13d a403 a6bd e496 a73d f9a4 95bd
000000f0: 07b7 8bbc cb02 6a3a c754 06bd ea8e 803c
00000100: 4618 50bd fde6 853c f757 863d 2909 043d
00000110: c4bb fbbb 79e4 723d dd3d 813d 879c 9fbd
00000120: c4fa e6bc 95d5 81bd 4809 7c3c 0865 883d
00000130: 232a fdbc 98cd aabd 5fdb 6dbd 06d0 caba
00000140: 1b4a 5c3c 2401 92bd bec4 803c c16f 963c
00000150: c940 2bbd 0edc 7a3c 228a 1bbd a43d 65bd
00000160: e262 7bbd d92d 93bd 520e 153d 5d01 9d3a
00000170: c0a7 f63c 6d20 af3c ca07 633d f10c 7e3c
00000180: 85ad 243d 51ec 89bc a14d e73c 5db6 923d
00000190: 2854 39bd bfca a6bd cff5 e33c 9a1c 033d
000001a0: ba7a 1abd 6f51 a43d cfce 94bd 3e05 64bd
000001b0: 0159 25bb b12e a7bd fb2c aa3c a832 44bd
000001c0: bafc 993d 5c65 283d ee8d a03d c590 9ebc
000001d0: ca89 973d 26ea af3d 8ef7 acbc 2314 5e3d
000001e0: b7ed 3a3c 0447 5e3d 1465 a2bd a506 c73c
000001f0: df5d b1bd 3812 243d 5d77 95bd d103 36bc
00000200: 0754 173d 6b03 85bb 8c15 163d 6a9b a63d
00000210: 3d0a 9a3c 80c9 8ebd d798 3f3d 08bb 81bd
00000220: 1c2f 7fbc bdb0 97bd 925d afbd 488f 403d
00000230: 5d1c 86bd 711c 91bb abc0 bcbd 8226 99bd
00000240: 45a4 6ebd 800e fb3c 9739 4b3d c5b4 47bd
00000250: 6799 7ebd a85d 8db7 1279 803d c4cd 963c
00000260: 0c79 86bd 6db0 f2bb ba65 adb9 ebf7 dbbb
00000270: fedc 2b3d 4b11 423c 3bf9 813d dbeb b3bd
00000280: e8ae b5bd ff14 313c 4b93 303d 7e69 b43c
00000290: c09e 7d3d 5ad4 2dbd 6c0d 50bd 7427 9cbc
000002a0: e4e0 5c3d 2adf bcbd a43c 863d a51c b9bc
000002b0: 7252 80bd 4078 99bd 3703 c1bc 2adf 30b9
000002c0: 1660 c23a 6570 3ebd 9ece 09bd eb73 093c
000002d0: a2d7 403d 2617 9ebd 46b3 363b b7a0 84bc
000002e0: d7a9 b3bd d68c 203d f7be a0bd 4587 383d
000002f0: 334f ca3c 1347 93bd d8ca 6bbb 1e65 bf3b
00000300: 9539 6abc 458d c0bd ca01 acbd cb0e 66bd
00000310: deaa a43d d9f4 8f3d dc7b 9e3b 2713 dabd
00000320: d2c5 303d b82f a2bc b8a9 6dbc 2a84 55bd
00000330: 87a6 843d 12ae 693a ddf0 43bd c17f f23c
00000340: ce04 6dbd 1a76 80bd 8a92 743d 2a0e 4f3d
00000350: 3b9e 8f3c 5c01 3abd d3ca cd3c d309 313c
00000360: 9b71 8abd 4897 a0bd 9951 5cbc 2817 093c
00000370: 1b1c 5dbd 814d 8b3d 9395 c1bc 49d4 383d
00000380: a8ad 9dbd 39d1 b63b 10ae 2c3d 4f0d 7b3d
00000390: 007c 84bd 1b46 163d 2d71 8b3b 16d9 9b3d
000003a0: 4e42 283d 7233 83bd 66f9 e5bc c9f9 833d
000003b0: d2ff e53c 9094 3fbb 4a03 93bb b061 083d
000003c0: 090f 923d ba39 49bd 63b6 823d 25ea 2e3d
000003d0: bce1 c7bc 9042 863d 9aae 80bd d563 ae3d
000003e0: c18c 973d 15f9 983d 7a5b 423d 4d5f b03b
000003f0: 522d 79bd 78c4 40bc 7191 efbc 19af b43c

embedding_projection.0.bias f4 [100]
0.023679405 -0.048423164 0.004891205 -0.101683706 -0.11501596 -0.050054092 -0.31075984 -0.016082436
-0.009776873 -0.03018766 -0.031252425 0.027796555 -0.18105844 -0.02718185 0.024672916 -0.008661143
-0.2199096 -0.08574988 -0.09233057 -0.15909167 -0.3878158 -0.026877463 -0.031476278 -0.03193136
-0.048267942 -0.04357635 -0.81427664 -0.019448081 -0.07454183 0.005229774 -0.14357767 -0.066448614
-0.08491843 0.060146146 -0.04791294 -0.08193011 -0.17098527 0.05231365 0.009665088 -0.07802907
-0.03306804 0.07320432 -0.079246074 0.01959211 0.04235488 -0.047209334 0.021190444 -0.060060296
0.13607807 0.04710586 0.010295251 0.008075112 -0.0939416 -0.011172425 -0.20602928 -0.0875033
0.03262009 0.08953998 0.034148958 -0.02262843 0.0353994 -0.0022877837 -0.18833888 -0.0552079
-0.38624427 -0.26737955 -0.109591514 -0.059985057 -0.03491582 0.14900722 -0.06825465 0.17824572
0.091105975 0.23841444 -0.042342946 -0.07978154 0.059993688 -0.06042754 -0.06627722 0.014379449
0.14424585 0.0046673105 -0.011750561 0.048056304 0.0646293 -0.06909789 0.0052508777 -0.09405586
-0.053982843 -0.0012968228 0.02598292 -0.02002942 -0.07545776 -0.8732386 -0.044034775 0.099382676
-0.08797004 -0.06651516 -0.059673972 0.054348394
00000000: 50fb c13c 5e57 46bd 6746 a03b 8c3f d0bd
00000010: 7d8d ebbd 8505 4dbd ea1b 9fbe 50bf 83bc
00000020: 2d2f 20bc 1d4c f7bc 8b02 00bd 9ab5 e33c
00000030: 6267 39be 79ac debc db1e ca3c 77e7 0dbc
00000040: fb2f 61be a29d afbd cf17 bdbd ede8 22be
00000050: cb8f c6be 202e dcbc 45ed 00bd 75ca 02bd
00000060: 9bb4 45bd 1d7d 32bd 6f74 50bf 9551 9fbc
00000070: 63a9 98bd 865e ab3b 0606 13be 3616 88bd
00000080: b7e9 adbd ce5b 763d 5c40 44bd f9ca a7bd
00000090: c316 2fbe d646 563d 515a 1e3c b4cd 9fbd
000000a0: 5a72 07bd 26ec 953d c44b a2bd a27f a03c
000000b0: 507c 2d3d 935e 41bd 9597 ad3c c901 76bd
000000c0: 0d58 0b3e 13f2 403d 6aad 283c 794d 043c
000000d0: 7464 c0bd 8c0c 37bc 57f9 52be ee34 b3bd
000000e0: a59c 053d bd60 b73d c7df 0b3d 425f b9bc
000000f0: f6fe 103d a4ee 15bb e8db 40be ae21 62bd
00000100: cfc1 c5be f9e5 88be 8471 e0bd e4b2 75bd
00000110: e403 0fbd 5995 183e 18c9 8bbd 0c86 363e
00000120: c595 ba3d ea22 743e cc6f 2dbd 8164 a3bd
00000130: f1bb 753d de82 77bd 5abc 87bd c897 6b3c
00000140: 2fb5 133e 3df0 983b 6d85 40bc b0d6 443d
00000150: 5e5c 843d 3283 8dbd 8e0f ac3b 5ca0 c0bd
00000160: 1d1d 5dbd 27fa a9ba 22da d43c bd14 a4bc
00000170: 9989 9abd 918c 5fbf cf5d 34bd 2589 cb3d
00000180: a329 b4bd 1a39 88bd b26c 74bd 6c9c 5e3d

embedding_projection.2.weight f4 [100]
0.94130224 0.93164897 0.95580554 1.0013419 1.1013846 0.9348515 0.24465464 0.94440985
1.0360341 1.4369311 0.9716433 1.2715505 0.9472454 0.95755637 0.92091584 1.0033605
0.4168488 1.5464454 1.124174 1.1556554 0.38250765 0.926547 0.9574833 0.9606125
0.9753358 0.9350463 0.3708875 0.9425363 1.0895631 1.19835 1.042451 1.1268367
0.9210542 0.9430118 1.143958 1.2426078 2.0154297 0.9552628 1.0685637 0.936733
0.93157434 1.1684321 0.9671583 0.9483309 0.93660605 1.0217779 0.9242979 0.9504595
1.2240337 0.9539176 0.92972183 0.7406593 0.93238646 1.1455195 0.7966341 1.0751876
0.97219473 1.1679872 0.916446 1.0403212 0.9388798 0.9740549 0.42810705 0.9164868
0.9980252 0.38992983 0.9297479 1.0080593 0.9541456 1.18707 1.0135701 0.4316842
1.0152229 1.2365912 0.9631045 0.97856253 0.92652047 1.1821023 1.1283994 0.9501096
1.2627847 0.9414795 1.1155093 0.9547592 0.9632775 0.960906 1.1485708 1.074097
1.0785787 0.45920572 0.94523203 0.9782255 0.9471129 0.37202942 0.93006045 0.9222365
0.96312064 0.952209 1.009493 0.94458133
00000000: 2ff9 703f 8c80 6e3f acaf 743f f92b 803f
00000010: 2cfa 8c3f 6e52 6f3f bf86 7a3e d8c4 713f
00000020: c49c 843f 5ced b73f 9ebd 783f 2bc2 a23f
00000030: ad7e 723f 6a22 753f 24c1 6b3f 1e6e 803f
00000040: 356d d53e ecf1 c53f efe4 8f3f 84ec 933f
00000050: 0bd8 c33e 2f32 6d3f a01d 753f b3ea 753f
00000060: 9baf 793f 325f 6f3f f7e4 bd3e 0f4a 713f
00000070: ce76 8b3f 8863 993f 096f 853f 2f3c 903f
00000080: 35ca 6b3f 3969 713f 376d 923f c60d 9f3f
00000090: cdfc 0040 1a8c 743f b2c6 883f bccd 6f3f
000000a0: a87b 6e3f 2f8f 953f b097 773f d0c5 723f
000000b0: 6ac5 6f3f 9ec9 823f ca9e 6c3f 5051 733f
000000c0: 23ad 9c3f f233 743f 4002 6e3f d99b 3d3f
000000d0: e1b0 6e3f 62a0 923f 36f0 4b3f bf9f 893f
000000e0: c1e1 783f 9b80 953f 349c 6a3f 3f29 853f
000000f0: 6d5a 703f a95b 793f d930 db3e e19e 6a3f
00000100: 947e 7f3f e2a4 c73e f503 6e3f 1608 813f
00000110: e342 743f e9f1 973f aabc 813f b605 dd3e
00000120: d3f2 813f 9f48 9e3f 048e 763f 1383 7a3f
00000130: 7230 6d3f 214f 973f 646f 903f 623a 733f
00000140: eea2 a13f cd04 713f 02c9 8e3f 196b 743f
00000150: 5b99 763f f0fd 753f 5e04 933f 037c 893f
00000160: de0e 8a3f 031d eb3e bafa 713f fd6c 7a3f
00000170: fe75 723f a47a be3e 7118 6e3f b117 6c3f
00000180: 138f 763f f8c3 733f 1137 813f 15d0 713f

embedding_projection.2.bias f4 [100]
0.16103438 0.07243999 0.11997573 0.1701146 0.36540577 0.09497232 -0.55276334 0.091088444
0.08810414 0.25379822 0.12791288 0.23790605 0.106513195 0.11388041 0.03877072 0.088585705
-0.8068872 0.23257989 0.2734562 0.2573477 -1.0525181 0.07999238 0.13014266 0.16760704
0.18224506 0.101917714 -0.44250888 0.1307229 0.22553441 0.3949247 0.22118796 0.30325633
0.07744672 0.14369562 0.2615266 0.0011891817 0.4687178 0.107282735 0.21991444 0.13560787
0.11817698 0.2144909 0.1775083 0.12868607 0.04978814 0.18878552 0.08284777 0.1116695
0.17814331 0.16446045 0.10130687 0.10081095 0.06684244 0.3568195 0.09869782 0.16890773
0.19339973 0.33292702 0.090910986 0.2551131 0.15803306 0.2213883 -0.641524 0.0564853
0.07463494 -0.59744704 0.17824237 0.21897462 0.14039527 0.14510392 0.2473221 -0.5609281
0.08344938 0.2168779 0.19067484 0.14830746 0.0785604 0.38259387 0.23983556 0.10841485
0.21852434 0.08946009 0.37436506 0.16372144 0.14189729 0.17670825 0.288409 0.25333387
0.24841449 -1.0752776 0.10242918 0.15035835 0.1464807 -0.6444047 0.04737818 0.14020765
0.18109101 0.15718749 0.35713544 0.1001009
00000000: 32e6 243e 6b5b 943d d6b5 f53d 8632 2e3e
00000010: 7716 bb3e d980 c23d e681 0dbf 948c ba3d
00000020: f16f b43d d7f1 813e 98fb 023e a59d 733e
00000030: 9723 da3d 223a e93d 0cce 1e3d 6c6c b53d
00000040: 2990 4ebf 6c29 6e3e 7302 8c3e 14c3 833e
00000050: eab8 86bf 0cd3 a33d 1e44 053e 2ea1 2b3e
00000060: 739e 3a3e 3cba d03d 8690 e2be 39dc 053e
00000070: 7ef2 663e 9233 ca3e 197f 623e 6a44 9b3e
00000080: 639c 9e3d f224 133e d1e6 853e 51de 9b3a
00000090: c8fb ef3e 0db7 db3d 4031 613e cadc 0a3e
000000a0: c606 f23d 81a3 5b3e bcc4 353e 48c6 033e
000000b0: a6ee 4b3d fe50 413e 17ac a93d fbb2 e43d
000000c0: 336b 363e 5268 283e fa79 cf3d f975 ce3d
000000d0: b0e4 883d 0cb1 b63e 1522 ca3d 26f6 2c3e
000000e0: 940a 463e 6975 aa3e 8a2f ba3d 2f9e 823e
000000f0: 6bd3 213e 9db3 623e eb3a 24bf 215d 673d
00000100: 34da 983d 4af2 18bf 2b85 363e e23a 603e
00000110: c7c3 0f3e 1f96 143e 0142 7d3e fc98 0fbf
00000120: 82e7 aa3d 3d15 5e3e 4440 433e e9dd 173e
00000130: 46e4 a03d 58e3 c33e 7497 753e 9b08 de3d
00000140: d8c4 5f3e da36 b73d c7ac bf3e 98a6 273e
00000150: 864d 113e 02f3 343e 58aa 933e fab4 813e
00000160: 5e60 7e3e b2a2 89bf 64c6 d13d 8af7 193e
00000170: 09ff 153e b5f7 24bf 9f0f 423d 9892 0f3e
00000180: ec6f 393e c2f5 203e 75da b63e b301 cd3d

embedding_projection.3.weight f4 [24, 100]
-0.00073350966 0.1199053 0.03189875 0.0056012287 -0.14867952 0.09221936 0.043237165 0.14538462
0.0051995167 -0.36010766 -0.005344328 -0.3277039 -0.06949699 0.04986359 -0.0061957487 0.08451043
0.13803951 -0.18688416 -0.14872153 -0.12680052 0.23890197 0.12507257 0.0003364562 -0.025069874
-0.0019480226 0.11792943 0.058706366 0.049566932 -0.11098446 -0.12209725 -0.16547832 -0.11896009
0.107986584 0.037653193 -0.11617246 0.18977453 -0.2036644 0.117900506 -0.11325367 -0.03934974
0.12080762 -0.05371159 -0.08576129 -0.050816026 0.14171807 -0.029409872 0.099356644 0.06389659
-0.062486038 -0.0038135792 0.083102606 -0.09245091 0.07080152 -0.16673201 -0.112569466 -0.09103254
-0.07081045 -0.12680383 0.05333558 -0.051528633 0.1185633 -0.073580794 0.24520487 0.12523642
0.06077678 0.05099281 -0.059464883 -0.016371608 -0.013963126 2.8328071e-05 -0.1488043 0.2551381
0.012355426 0.006366307 0.06876416 -0.018469835 0.06339474 -0.1518004 -0.102576286 -0.032256134
-0.22631365 0.07305988 -0.14569262 -0.030189566 -0.03063737 0.11609943 -0.12073532 -0.10819155
-0.035633646 0.17779046 -0.011134514 -0.0595577 -0.061040528 -0.058093034 0.034969136 -0.11308475
-0.054302517 0.0026236717 -0.24461596 0.08043054 0.077687554 0.00059623685 0.104877554 -0.06568706
-0.040295582 0.08844957 -0.009635412 0.10976335 0.053547606 -0.27718037 0.029535681 -0.20207168
-0.04585863 -0.0002775186 0.114384845 0.2548246 0.034096174 0.2848484 -0.01459862 -0.009058997
0.12110362 -0.058549725 -0.025232187 -0.023475066 0.031888667 0.0028030998 -0.21788584 -0.05938545
-0.031958092 -0.024788562 0.0013134719 -0.08839717 -0.07027032 -0.006118716 -0.051160138 0.49832234
-0.40480092 -0.01258182 5.8451686e-05 0.0063878554 -0.072334416 0.059210815 -0.031978138 -0.031617265
-0.056701675 0.007433363 -0.039099056 -0.052677784 0.035328735 -0.019298146 0.045656268 0.08372685
-0.022502396 -0.020208407 -0.23109627 -0.16559692 0.08952633 -0.053341616 -0.06967125 0.06559475
-0.0012304242 -0.016717866 0.101706654 0.08155491 -0.43037647 -0.025696518 -0.06871424 -0.06365651
-0.054795783 0.091821745 0.041797362 0.10650864 -0.04681882 -0.00020892992 0.0028487118 0.1002818
0.04205827 -0.03844732 -0.082804926 0.09288454 0.064379066 0.023916485 -0.09191387 -0.04342526
0.049524836 -0.022519931 -0.053887468 -0.0058188033 -0.04360928 -0.05991006 0.08783911 0.036413703
0.068919055 0.22006072 0.07105231 0.019867118 -0.060736883 0.013777973 -0.09475777 0.111791186
-0.015708784 -0.0016386723 0.057717 0.13444641 0.17021105 0.0077207186 -0.026427045 0.03697607
0.114321806 0.12719798 0.063258186 -0.094190516 0.07979087 0.0049443454 0.0041132597 0.18224451
-0.42326394 -0.30741277 0.19992666 0.043889996 -0.47982967 0.10063278 0.04298072 0.08298353
-0.010452974 0.04369159 -0.64359623 -0.016479548 0.06533812 0.2281943 0.13430616 0.1750603
0.12658031 0.07643902 -0.06736947 -0.0048045586 0.41164288 0.027944895 0.07122685 0.032219905
-0.03460349 0.47292703 0.120262966 0.09747081 0.006750627 -0.02950415 -0.01648018 0.07016249
-0.026543237 0.09734942 0.035546787 -0.008069599 0.040818423 0.28921 -0.09499093 0.108181424
00000000: 0049 40ba e990 f53d 44a8 023d 838a b73b
00000010: 723f 18be 81dd bc3d 7419 313d b5df 143e
00000020: b560 aa3b 0860 b8be 791f afbb cec8 a7be
00000030: 7054 8ebd c43d 4c3d b505 cbbb ce13 ad3d
00000040: 3b5a 0d3e 905e 3fbe 754a 18be ffd7 01be
00000050: b8a2 743e 0613 003e 6366 b039 565f cdbc
00000060: cb54 ffba fc84 f13d 1676 703d b206 4b3d
00000070: d24b e3bd 1f0e fabd 2673 29be 59a1 f3bd
00000080: 1228 dd3d 3c3a 1a3d d4eb edbd 4154 423e
00000090: 678d 50be d275 f13d 8af1 e7bd 312d 21bd
000000a0: fc69 f73d af00 5cbd 9da3 afbd 7724 50bd
000000b0: 8b1e 113e f9ec f0bc 7f7b cb3d 37dc 823d
000000c0: 5cf1 7fbd 3eed 79bb b331 aa3d e756 bdbd
000000d0: 6300 913d ccbb 2abe d28a e6bd 456f babd
000000e0: 1205 91bd ddd8 01be 6976 5a3d b00f 53bd
000000f0: 51d1 f23d 87b1 96bd fc16 7b3e fa3d 003e
00000100: 13f1 783d d6dd 503d 7391 73bd c01d 86bc
00000110: 98c5 64bc 12a2 ed37 2860 18be 76a1 823e
00000120: 6a6e 4a3c 749c d03b 39d4 8c3d 0d4e 97bc
00000130: 1ad5 813d 9071 1bbe 8413 d2bd 021f 04bd
00000140: c4be 67be 6ba0 953d 7230 15be 1c50 f7bc
00000150: 39fb fabc 8ac5 ed3d 1444 f7bd 8893 ddbd
00000160: 96f4 11bd b40e 363e 896d 36bc c6f2 73bd
00000170: a205 7abd f6f2 6dbd cc3b 0f3d fa98 e7bd
00000180: 516c 5ebd e8f1 2b3b 9b7c 7abe c4b8 a43d
00000190: a71a 9f3d c74c 1c3a 0bca d63d f086 86bd
000001a0: fb0c 25bd 0c25 b53d d9dd 1dbc 9bcb e03d
000001b0: bc54 5b3d 96ea 8dbe d0f4 f13c e1eb 4ebe
000001c0: 42d6 3bbd ea7f 91b9 9a42 ea3d 5f78 823e
000001d0: 6ea8 0b3d a6d7 913e 0d2f 6fbc 306c 14bc
000001e0: 2d05 f83d d6d1 6fbd bbb3 cebc c84e c0bc
000001f0: b19d 023d 36b4 373b 771d 5fbe 283e 73bd
00000200: 7de6 02bd 6211 cbbc ce28 ac3a 9309 b5bd
00000210: e3e9 8fbd 837f c8bb 4b8d 51bd 1b24 ff3e
00000220: 1142 cfbe fa23 4ebc 052a 7538 3751 d13b
00000230: 1124 94bd 0a87 723d 82fb 02bd 1b81 01bd
00000240: 0440 68bd 9193 f33b 5526 20bd a9c4 57bd
00000250: ddb4 103d 2517 9ebc 1102 3b3d fc78 ab3d
00000260: f256 b8bc 1a8c a5bc 80a4 6cbe 3d92 29be
00000270: 9559 b73d bd7c 5abd cdaf 8ebd 8a56 863d
00000280: 2f46 a1ba e8f3 88bc 944b d03d 4306 a73d
00000290: 4e5a dcbe 8181 d2bc 0dba 8cbd 585e 82bd
000002a0: 8b71 60bd 0a0d bc3d b633 2b3d 3421 da3d
000002b0: 17c5 3fbd 3314 5bb9 74b1 3a3b 8b60 cd3d
000002c0: 4b45 2c3d f07a 1dbd a195 a9bd 403a be3d
000002d0: 2cd9 833d 81ec c33c 573d bcbd afde 31bd
000002e0: 8eda 4a3d b87b b8bc 1bb9 5cbd a9ab bebb
000002f0: a59f 32bd 4064 75bd fee4 b33d 8926 153d
00000300: 6f25 8d3d 9957 613e e083 913d 5ec0 a23c
00000310: 3dc7 78bd 02bd 613c 5d10 c2bd c7f2 e43d
00000320: b5af 80bc b8c8 d6ba a968 6c3d 52ac 093e
00000330: ce4b 2e3e 15fe fc3b 887d d8bc 3874 173d
00000340: 8d21 ea3d 3040 023e 828d 813d f5e6 c0bd
00000350: 6569 a33d 2d04 a23b 86c8 863b 4e9e 3a3e
00000360: 0db6 d8be 3565 9dbe 93b9 4c3e ffc5 333d
00000370: 3cac f5be 8f18 ce3d 8d0c 303d 45f3 a93d
00000380: f342 2bbc f4f5 323d b9c2 24bf 1e00 87bc
00000390: fecf 853d c4ab 693e 8e87 093e 0243 333e
000003a0: 459e 013e 108c 9c3d 01f9 89bd 8f6f 9dbb
000003b0: dbc2 d23e b1ec e43c 62df 913d 05f9 033d
000003c0: 64bc 0dbd 7e23 f23e 6e4c f63d c79e c73d
000003d0: 5d34 dd3b b0b2 f1bc 7101 87bc 5ab1 8f3d
000003e0: 3471 d9bc 225f c73d 8299 113d 5a36 04bc
000003f0: 3831 273d 5513 943e 9b8a c2bd 398e dd3d

embedding_projection.3.bias f4 [24]
-0.4601337 -0.2542742 0.13047175 -0.5209402 -0.09187548 -0.3222604 -0.37935525 -0.35607648
0.0911393 -0.15006228 0.23041072 0.18182752 -0.12957318 0.0953358 0.071668565 0.14572906
0.37783566 0.2615219 -0.14194116 0.26603636 0.324097 0.16344908 0.23771924 0.11863229
00000000: a596 ebbe 3a30 82be 639a 053e 565c 05bf
00000010: 3629 bcbd 51ff a4be da3a c2be a84f b6be
00000020: 3ea7 ba3d eda9 19be caf0 6b3e fe30 3a3e
00000030: d5ae 04be 6a3f c33d f8c6 923d 003a 153e
00000040: ad73 c13e 33e6 853e 0659 11be eb35 883e
00000050: 0bf0 a53e 325f 273e ac6c 733e 7cf5 f23d
