congestion_control/data/final_projection.pt (torch, 241678 bytes, 2 tensors)

weight f4 [7, 24]
0	0xc03cf014	-2.9521532
1	0x400ff809	2.2495139
2	0xc0f70bc4	-7.720186
3	0xc050d938	-3.263258
4	0x418e3b65	17.779001
5	0xc1a0a128	-20.07869
6	0x41021810	8.130875
7	0xc0f6c18f	-7.7111278
8	0xbd232823	-0.0398332
9	0x4101dd78	8.1165695
10	0x4154f0b3	13.308764
11	0xc12b60da	-10.711145
12	0xc1aaf5fc	-21.37011
13	0x3bd5a6c0	0.0065201223
14	0xc1155344	-9.3328285
15	0xbd21d47f	-0.039509293
16	0x404b14ca	3.1731439
17	0xc124505f	-10.269622
18	0xbf951832	-1.1648009
19	0x4139183b	11.568416
20	0x40e1c07a	7.0547457
21	0x4110620f	9.02394
22	0x400ad01a	2.1689515
23	0x40e45814	7.1357517
24	0xbe80d9fe	-0.25166315
25	0x3f840c33	1.0316223
26	0xbd35c56a	-0.04437772
27	0x3bb17690	0.005415745
28	0xc0c8192b	-6.2530723
29	0x3c07cbfe	0.008288382
30	0xc144d964	-12.303074
31	0xc0a00fb0	-5.001915
32	0x4093057d	4.59442
33	0xbfe12565	-1.7589537
34	0x404bc6ca	3.1840081
35	0x4093acce	4.6148443
36	0x38a9cc80	8.096639e-05
37	0xc066b056	-3.6045127
38	0x3f2c17ce	0.67223823
39	0xc088ca19	-4.27467
40	0xbfc2a6bf	-1.5207137
41	0x3ccf880b	0.025333425
42	0xbe925db7	-0.28587124
43	0xc002df1f	-2.0448682
44	0x4045353c	3.0813742
45	0x409c0af9	4.8763394
46	0x4089fbdd	4.311995
47	0x410ed93d	8.928037
48	0xbd3f90e7	-0.04676905
49	0xc18b1d02	-17.389164
50	0xbca756c8	-0.020427123
51	0xbc3cb7af	-0.011518403
52	0xc1bd53d3	-23.66593
53	0xbd21ad9e	-0.039472215
54	0xbf263783	-0.64928454
55	0xbc5823b3	-0.013192105
56	0x4061f2cf	3.5304449
57	0xbd02d35a	-0.03193984
58	0xc0f51ebd	-7.660002
59	0xbfaa0171	-1.328169
60	0x4154f390	13.3094635
61	0x40e80b50	7.251381
62	0xbd367c17	-0.044551935
63	0xbd2fa244	-0.042879358
64	0xbfeee36b	-1.8663152
65	0x4117a93b	9.478816
66	0x40d7d17f	6.7443233
67	0x3d9b6c91	0.07589067
68	0x3b4f8714	0.0031666206
69	0xc0e05bcf	-7.011207
70	0x3ffe17d8	1.9851027
71	0xbc8a8388	-0.016908422
72	0xbc422ed9	-0.01185199
73	0x3b7e3e64	0.0038794512
74	0x4037a539	2.8694594
75	0xbc3f33c8	-0.01167006
76	0xbb8fde66	-0.0043905256
77	0x4097323a	4.724881
78	0x3c539eff	0.012916326
79	0xbc99cdc3	-0.018774873
80	0xbc936988	-0.017994657
81	0x3ca0a60c	0.019610427
82	0xbbb9eaf0	-0.0056737587
83	0x3eb0dbac	0.34542596
84	0x3eab9ab6	0.33516473
85	0xbc444486	-0.011979228
86	0x3ca512f1	0.020150634
87	0x407283e3	3.7892997
88	0x3ca91bba	0.020643104
89	0xbec95c0d	-0.39328042
90	0xc088f694	-4.2801
91	0xbb20c864	-0.0024533505
92	0xc0adb820	-5.428726
93	0xbb1c73e8	-0.0023872796
94	0xc010b4e7	-2.2610414
95	0xc02e97a1	-2.7280047
96	0x40e2c6cf	7.0867686
97	0x3f32cce4	0.6984389
98	0x4093f37a	4.6234713
99	0x4067ea92	3.623692
100	0x408113a4	4.0336475
101	0x4094dc9a	4.651929
102	0x40211a90	2.5172462
103	0x4108afc9	8.542916
104	0xc0ec5070	-7.384819
105	0xbef74e7f	-0.48302075
106	0xc0967cee	-4.70275
107	0x3d188477	0.037235703
108	0x3d366993	0.044534277
109	0x3d0acea6	0.03388848
110	0x408146b6	4.0398817
111	0x40808063	4.015672
112	0x40198df4	2.3992891
113	0x3d0b4879	0.034004662
114	0x3ebfa995	0.37434068
115	0xc01eb04e	-2.4795108
116	0xc0731664	-3.7982416
117	0xbeb3af93	-0.3509489
118	0xc0ec2c4b	-7.380407
119	0xc166327f	-14.387328
120	0x3ea33f2c	0.31884134
121	0xba883f78	-0.0010394892
122	0x3f9ebc06	1.240113
123	0xb7c9d400	-2.4059787e-05
124	0x3fc1483d	1.510017
125	0x407a0911	3.9068034
126	0xbc1615d4	-0.009160478
127	0x401ce245	2.4513104
128	0xbcbc5952	-0.02299181
129	0xbce7ab9c	-0.028280072
130	0xbfd974dc	-1.6988788
131	0x3fc9e335	1.5772463
132	0x375c4400	1.3128854e-05
133	0xbc97d86a	-0.018535811
134	0x3fcf07e4	1.6174283
135	0x3a28e650	0.00064430106
136	0xbcce79bc	-0.025204532
137	0xbc5da6dd	-0.013528553
138	0xbbb2a28a	-0.005451505
139	0xc06f7e89	-3.742098
140	0xc068b33e	-3.63594
141	0xbf5a3c27	-0.85248035
142	0xbfcc2973	-1.5950149
143	0xc0b56fee	-5.6699133
144	0xbbdaf765	-0.0066823238
145	0xbce917a8	-0.028453663
146	0xbc14643b	-0.0090571
147	0xbc4018b0	-0.011724636
148	0xbb13ac72	-0.0022533205
149	0xbc4f5c4e	-0.0126562845
150	0xbc1d0c68	-0.009585477
151	0x3bdc8f90	0.006730981
152	0xbc92f414	-0.017938651
153	0xbc40054f	-0.011720016
154	0xb9c400b0	-0.00037384545
155	0xbc2f6be0	-0.010706872
156	0x3b12f3b3	0.0022423088
157	0xbc5e0ce4	-0.013552878
158	0xbbaf8626	-0.005356568
159	0xb97bbb50	-0.00024007005
160	0xbb00617c	-0.0019589355
161	0xbcaecd02	-0.02133799
162	0xbbb1f804	-0.005431177
163	0x3bb4c921	0.0055171405
164	0xbbfc3c68	-0.0076976307
165	0xbb8d1d47	-0.0043064686
166	0xb9d5d910	-0.0004078825
167	0x3bc3e169	0.0059777987

bias f4 [7]
0	0xbb7009d0	-0.0036626942
1	0x3c3fb58f	0.011701002
2	0xbcf2ca3d	-0.02963745
3	0xbae6d110	-0.0017609913
4	0x3d228ebc	0.039686903
5	0xbc3ae919	-0.011408114
6	0xc08c67d6	-4.3876753
