abr/data/abr_model.pt (torch, 384142 bytes, 16 tensors)

features_extractor.network_cnn.0.weight f4 [64, 10, 3]
-0.17530684 -0.017784389 0.109104335 -0.1718291 -0.12542461 0.065082885 -0.12981239 0.13548358
0.17058913 -0.10421923 -0.121107325 -0.01786081 0.1525198 0.0013506407 0.02727873 -0.030160254
-0.07050549 -0.041848943 0.15677634 -0.16117701 0.18233955 -0.0129508255 -0.079049096 0.13536243
0.17610793 -0.14091006 -0.018176625 0.05526623 -0.09178155 -0.030259605 -0.32074425 -0.22310962
0.0066071833 0.064831786 0.14302546 -0.07260365 -0.09398907 -0.07540178 0.09145352 -0.13629697
0.118188344 -0.13925612 -0.014845647 -0.04452959 0.11254419 -0.044673 0.1474332 -0.030753851
-0.18710166 0.115258195 0.08325408 -0.13857529 -0.10796056 0.16332115 -0.17805369 -0.0802536
-0.11312873 -0.41034514 -0.19559582 0.060897022 -0.37177932 -0.13414896 -0.10175135 -0.07558194
-0.120354615 -0.15223643 0.048103638 0.06393953 0.10934411 0.2894211 0.04190354 -0.13242057
-0.053428445 -0.033118695 -0.09470169 0.12269627 -0.01395514 -0.1411186 0.03596681 0.11786008
0.1786743 -0.1091459 -0.11463612 0.17759378 -0.058970626 0.15017968 0.057059318 0.18678005
0.005796112 0.13946787 -0.02777835 0.074739456 -0.07789345 -0.07386561 0.08182443 -0.027138358
-0.03937762 0.05080668 0.059090346 -0.14389613 0.02131751 -0.044147663 -0.30338302 -0.11969845
-0.044232704 -0.19246116 -0.093801714 0.10288442 -0.083447754 0.08537004 0.1322638 -0.51928484
-0.16426201 0.08940831 -0.57106626 0.0742911 0.2215827 -1.0232528 -0.051458996 -0.036869925
-0.062965035 -0.041286808 0.049813088 -0.009454069 0.14979418 -0.08333567 0.036371194 0.009397456
-0.17100269 0.03192155 0.13859753 0.11984773 0.07550859 -0.059156314 0.005154572 0.09716194
-0.09953111 -0.086086184 0.13018037 -0.00092428474 0.11767222 0.09795855 -0.062674314 0.0010170182
0.1805139 -0.018801847 0.0040308144 0.32703608 -0.2713505 0.20119242 -0.10096547 -0.22327724
0.08320494 0.026670558 -0.0313089 -0.11314929 -0.04011784 0.07390387 -0.10881502 0.11873068
-0.036008984 0.09481578 -0.13264179 0.049450465 -0.21887717 0.15787184 0.028424637 0.09409417
0.07431632 0.14613144 0.16325648 0.022681514 0.16095918 0.019314392 -0.09891575 0.114925206
0.078054406 0.18228583 0.17798884 0.041982 -0.36896122 0.09897719 -0.11391882 -0.18989499
0.18168688 0.11476114 -0.31018436 -0.020267474 -0.073948584 -0.2406766 0.081276335 -0.0392941
-0.28309062 0.05805628 0.062187325 -0.5352283 -0.046329975 0.06738461 -0.2493299 -0.004601512
-0.106840804 -0.505754 0.087179914 0.044035036 -0.82758856 0.009026224 0.10602318 -0.8738038
-0.058841377 -0.22218333 -0.10464015 -0.07560392 -0.045852955 -0.00051602226 -0.087098695 0.040886816
-0.20409165 0.004718284 -0.03770038 -0.18984088 0.10326476 0.14052728 -0.16154304 -0.10410211
0.13249789 -0.044268016 0.004557733 0.06391814 -0.016284347 0.08158563 0.11286249 0.1563783
-0.11746644 -0.03298576 0.044975836 0.08928804 0.09947101 0.5387686 0.15738256 0.14011607
0.015272763 0.030173067 -0.18542513 0.06909261 0.0057410514 -0.21421151 0.054755628 0.07184214
-0.06489636 0.05073632 -0.115362525 0.047028974 -0.16824016 -0.020617027 -0.08776682 0.06477322
00000000: a383 33be 91b0 91bc 1872 df3d f8f3 2fbe
00000010: 4f6f 00be 2d4a 853d 8aed 04be 35bc 0a3e
00000020: ebae 2e3e e470 d5bd 1e07 f8bd d550 92bc
00000030: 272e 1c3e fb07 b13a a577 df3c a312 f7bc
00000040: 2f65 90bd cc69 2bbd fa89 203e 960b 25be
00000050: 38b7 3a3e b32f 54bc 7ee4 a1bd 739c 0a3e
00000060: a355 343e ba4a 10be 25e7 94bc d85e 623d
00000070: f7f7 bbbd fee2 f7bc 9738 a4be d976 64be
00000080: 1281 d83b 87c6 843d 4475 123e 39b1 94bd
00000090: 577d c0bd 406c 9abd fc4b bb3d 6f91 0bbe
000000a0: bb0c f23d 2899 0ebe 283b 73bc a964 36bd
000000b0: 917d e63d 09fb 36bd bbf8 163e 80ef fbbc
000000c0: 9497 3fbe 7d0c ec3d 1d81 aa3d aee6 0dbe
000000d0: 6d1a ddbd a93d 273e b553 36be 005c a4bd
000000e0: 09b0 e7bd c218 d2be 454a 48be 286f 793d
000000f0: dc59 bebe 585e 09be 0363 d0bd b4ca 9abd
00000100: 7b7c f6bd dee3 1bbe 5208 453d baf2 823d
00000110: ceef df3d 012f 943e 0ca3 2b3d 4299 07be
00000120: c9d7 5abd 78a7 07bd f6f2 c1bd 2f48 fb3d
00000130: 19a4 64bc 6581 10be ef51 133d a060 f13d
00000140: 65f6 363e e387 dfbd 58c6 eabd 25db 353e
00000150: 2f8b 71bd b4c8 193e 08b7 693d 4543 3f3e
00000160: 50ed bd3b aad0 0e3e 6c8f e3bc 0011 993d
00000170: 9a86 9fbd da46 97bd 9193 a73d 4351 debc
00000180: 6d4a 21bd aa1a 503d b808 723d 8259 13be
00000190: 0fa2 ae3c 2ed4 34bd 0555 9bbe 7624 f5bd
000001a0: 5a2d 35bd 8a14 45be 1d1b c0bd 11b5 d23d
000001b0: a8e6 aabd 7dd6 ae3d 2970 073e daef 04bf
000001c0: 4d34 28be b41b b73d 6631 12bf ef25 983d
000001d0: 93e6 623e f3f9 82bf abc6 52bd eb04 17bd
000001e0: d0f3 80bd 5b1c 29bd cf08 4c3d 3de5 1abc
000001f0: a563 193e e4ab aabd f6f9 143d caf7 193c
00000200: 541b 2fbe 2cc0 023d 83ec 0d3e ba72 f53d
00000210: 3fa4 9a3d e44d 72bd afe7 a83b d7fc c63d
00000220: f7d6 cbbd f44d b0bd 014e 053e b34b 72ba
00000230: 22fe f03d 7e9e c83d 645b 80bd 784d 853a
00000240: a3d8 383e 5506 9abc ec14 843b 4671 a73e
00000250: 74ee 8abe 6305 4e3e fcc6 cebd caa2 64be
00000260: 5a67 aa3d 377c da3c c33d 00bd d1ba e7bd
00000270: 9b52 24bd ea5a 973d 69da debd 1229 f33d
00000280: 287e 13bd c72e c23d 40d3 07be 928c 4a3d
00000290: 5621 60be 28a9 213e c9da e83c 72b4 c03d
000002a0: 2833 983d 7ba3 153e b52c 273e 95ce b93c
000002b0: 7cd2 243e 3739 9e3c 5794 cabd e85d eb3d
000002c0: fdda 9f3d 23a9 3a3e b542 363e 51f5 2b3d
000002d0: 7ce8 bcbe 8eb4 ca3d 454e e9bd d573 42be
000002e0: 200c 3a3e e307 eb3d 7cd0 9ebe f907 a6bc
000002f0: 5b72 97bd ed73 76be 3574 a63d daf2 20bd
00000300: 41f1 90be 6ccc 6d3d 23b8 7e3d b904 09bf
00000310: 80c4 3dbd f100 8a3d 5650 7fbe 48c8 96bb
00000320: 5acf dabd 1879 01bf 628b b23d 155e 343d
00000330: d8dc 53bf bae2 133c ae22 d93d 9bb1 5fbf
00000340: a803 71bd 0784 63be 934d d6bd 3ad6 9abd
00000350: 4fd0 3bbd ab45 07ba cd60 b2bd ef78 273d
00000360: 67fd 50be d69b 9a3b b76b 1abd a665 42be
00000370: 797c d33d 62e6 0f3e 8a6b 25be 7d33 d5bd
00000380: 87ad 073e 6152 35bd 0959 953b 84e7 823d
00000390: c066 85bc 5e16 a73d 7324 e73d a221 203e
000003a0: 3f92 f0bd 141c 07bd 9538 383d a6dc b63d
000003b0: 75b7 cb3d bdec 093f e528 213e 967a 0f3e
000003c0: 9c3a 7a3c 822d f73c 16e0 3dbe 6d80 8d3d
000003d0: 6e1f bc3b 435a 5bbe 7047 603d f921 933d
000003e0: 62e8 84bd e3d0 4f3d 3043 ecbd 74a1 403d
000003f0: 2647 2cbe 0ae5 a8bc 17bf b3bd d2a7 843d

features_extractor.network_cnn.0.bias f4 [64]
0.16561088 0.1463607 0.00403869 0.189075 0.008454175 0.047173943 0.1978713 -0.026254475
0.0631832 0.08292181 0.30246377 0.051861677 0.15489258 -0.07273075 0.071179375 0.12430415
0.15337633 0.07617866 0.047775358 -0.0057485215 0.08831337 0.23700087 0.196055 0.3100947
0.10937205 0.14653274 -0.04209538 -0.14042611 0.26166037 0.24274713 0.13098432 0.20438826
-0.14044906 -0.12311706 0.16380425 0.124133825 0.18641727 0.08495473 0.09279366 0.2290352
0.18327478 0.077694535 0.29461333 0.14683159 0.009859109 -0.06392907 0.32473987 0.17300479
0.1880127 -0.16208783 0.05452629 0.08933883 -0.026294528 0.24800114 0.21383269 0.094947934
0.07993791 0.19657844 0.13993016 0.2120216 -0.08111223 0.09158453 0.003200989 -0.012519914
00000000: e695 293e 94df 153e fd56 843b e09c 413e
00000010: 6183 0a3c 7739 413d c69e 4a3e a013 d7bc
00000020: 3266 813d e9d2 a93d 88dc 9a3e e96c 543d
00000030: 299c 1e3e dcf3 94bd 7ec6 913d 2d93 fe3d
00000040: af0e 1d3e 8f03 9c3d 18b0 433d 185e bcbb
00000050: a4dd b43d 5bb0 723e a4c2 483e bcc4 9e3e
00000060: 74fe df3d ae0c 163e 356c 2cbd ddcb 0fbe
00000070: 59f8 853e b492 783e c120 063e 284b 513e
00000080: e1d1 0fbe cc24 fcbd 4dbc 273e e039 fe3d
00000090: 2be4 3e3e bffc ad3d 9a0a be3d 3488 6a3e
000000a0: 62ac 3b3e 501e 9f3d 8fd7 963e 055b 163e
000000b0: 1a88 213c 3fed 82bd 4e44 a63e 2b28 313e
000000c0: 6786 403e 5afa 25be f656 5f3d 47f7 b63d
000000d0: 9f67 d7bc 03f4 7d3e f5f6 5a3e 1074 c23d
000000e0: 7db6 a33d dc4b 493e da49 0f3e 311c 593e
000000f0: 2b1e a6bd ac90 bb3d afc7 513b 5320 4dbc

features_extractor.network_cnn.2.weight f4 [64, 64, 3]
0.088569336 0.10170882 0.13002722 0.097369336 0.056158945 0.11560712 0.027005387 0.061840434
0.15151884 -0.17761698 -0.0043115774 0.025545908 0.008327103 -0.065097645 -0.027948992 -0.12009601
-0.087427534 0.008659429 0.0011453833 0.116480075 0.14251515 -0.06591001 -0.16945207 0.08187719
0.02193498 0.1025569 0.12974381 -0.10834548 -0.0024766983 0.014192561 -0.03756587 0.2304209
0.030992405 -0.06867372 -0.020587848 0.09592086 -0.056263287 0.09503584 0.24493878 0.18028486
0.11912154 -0.07947371 -0.117298625 0.047945615 0.0763825 0.097675495 0.013651001 -0.15380768
-0.036743455 0.043114666 -0.039927445 -0.0374728 0.20459925 -0.054001138 -0.06320875 0.11338467
-0.0018884725 -0.08149732 -0.044893693 0.0015383009 0.06659509 -0.06501673 -0.02548445 -0.019146789
0.10241244 0.022473976 -0.13517676 0.12925346 0.11436034 -0.05467786 0.30945778 -0.19493654
-0.16614741 0.01176939 0.05139992 0.4434997 -0.11022334 0.009948664 0.2712808 0.060551416
-0.010809672 0.019839184 0.09186412 0.19636467 -0.2619612 0.38838282 -0.09046198 0.02096902
0.06470956 0.008676137 -0.2343749 0.6152002 -0.08492668 0.043246135 -0.122600526 -0.0007868712
0.11709835 0.14642258 0.07517525 0.12448416 -0.03794914 0.024872405 0.050959706 0.3449327
-0.20734526 -0.04817338 -0.08373508 0.011478828 0.112285055 0.0010368754 -0.08736801 -0.09593504
-0.049073733 0.12035005 -0.007104202 -0.1321715 0.019482076 0.5499872 0.06474164 0.2232505
-0.07116412 0.13347729 0.022727732 -0.029716602 -0.038286284 0.003020166 0.0008897827 0.108844236
0.033179488 0.09717787 0.0055008763 0.0018027081 -0.03211787 -0.058063183 -0.061862107 0.37509748
0.04162915 -0.027470745 0.509813 0.21797012 0.06407785 -0.3244249 0.14620148 0.0032799956
0.21107543 -0.21863781 0.041063286 -0.018977258 -0.14524987 -0.05587777 0.22470382 0.14663099
0.07717868 -0.11014814 -0.044060994 -0.05681902 -0.017343212 0.112262465 0.04740833 -0.029354898
0.35495818 0.12525773 -0.0776121 0.12489299 0.012542423 0.022849122 -0.04765782 -0.032158893
-0.22244051 0.13812631 0.009123166 0.07988552 0.098131105 0.018790806 -0.01872047 0.056784384
0.11442529 0.050433673 -0.07975276 0.0152549045 -0.00084495393 -0.11533945 0.1751076 0.036391996
-0.20236647 0.011117238 -0.019261451 0.13040733 0.009689609 0.027011761 -0.012618745 0.070632294
-0.11844911 -0.03896673 0.03616418 -0.018345825 0.045387592 0.071218826 0.031093063 -0.18487567
-0.14791878 0.07066832 -0.002250314 0.050201587 0.03133003 0.042438008 -0.04972518 -0.02481724
-0.00450506 -0.017424798 0.16345376 0.023470195 -0.03471678 -0.33863768 0.022232758 0.049224764
0.034495655 0.12891486 0.021654883 0.12873574 0.064991705 -0.064965 0.09657563 0.056380462
-0.0060620517 0.17251109 -0.10957554 0.0736044 0.10949651 -0.045947608 0.075354815 -0.25429904
0.0149217695 0.16390328 -0.047922485 -0.00016981212 0.11844456 0.112612054 0.0030480935 0.18209882
-0.072633885 -0.039635338 0.123627976 0.0096321395 -0.023431657 0.155531 -0.10015878 -0.077760726
0.025923807 0.14595433 -0.026837407 0.03704484 -0.12968902 0.057461794 0.0064070914 0.008826126
00000000: d763 b53d b74c d03d db25 053e 9369 c73d
00000010: ec06 663d 6dc3 ec3d 673a dd3c 654c 7d3d
00000020: c127 1b3e 3ae1 35be 2248 8dbb a745 d13c
00000030: 676e 083c ea51 85bd 49f5 e4bc e6f4 f5bd
00000040: 350d b3bd 47e0 0d3c b020 963a 1b8d ee3d
00000050: 7eef 113e d4fb 86bd d884 2dbe 3aaf a73d
00000060: fdb0 b33c 5a09 d23d 90db 043e 3ce4 ddbd
00000070: 1a50 22bb ea87 683c abde 19bd 75f3 6b3e
00000080: c9e3 fd3c cfa4 8cbd d9a7 a8bc 2872 c43d
00000090: 5574 66bd 27a2 c23d 3bd1 7a3e 989c 383e
000000a0: fef5 f33d 1dc3 a2bd 433a f0bd 9f62 443d
000000b0: 6e6e 9c3d 170a c83d 73a8 5f3c c37f 1dbe
000000c0: 4e80 16bd 0199 303d f68a 23bd 147d 19bd
000000d0: 7782 513e 4c30 5dbd 9773 81bd 3936 e83d
000000e0: 9f86 f7ba 11e8 a6bd 73e2 37bd d0a0 c93a
000000f0: 0263 883d 7e27 85bd c4c4 d0bc bad9 9cbc
00000100: 9dbd d13d 581b b83c c76b 0abe 055b 043e
00000110: c135 ea3d e4f5 5fbd 4071 9e3e 729d 47be
00000120: 8c22 2abe 66d4 403c b988 523d 6512 e33e
00000130: c6bc e1bd b9ff 223c 51e5 8a3e c304 783d
00000140: 0d1b 31bc c985 a23c 4123 bc3d d213 493e
00000150: c71f 86be 1dda c63e 2144 b9bd 39c7 ab3c
00000160: 7286 843d 5b26 0e3c f9ff 6fbe c37d 1d3f
00000170: 0aee adbd dc22 313d fc15 fbbd 0846 4eba
00000180: 42d1 ef3d cdef 153e 7bf5 993d 8df1 fe3d
00000190: 8f70 1bbd 37c1 cb3c 20bb 503d 059b b03e
000001a0: 5152 54be 7351 45bd 4c7d abbd b211 3c3c
000001b0: b5f5 e53d c4e7 873a 00ee b2bd 9779 c4bd
000001c0: 8a01 49bd 167a f63d 5eca e8bb f757 07be
000001d0: e098 9f3c f6cb 0c3f 4497 843d c79b 643e
000001e0: 7fbe 91bd 45ae 083e 822f ba3c 3b70 f3bc
000001f0: 14d2 1cbd faed 453b 4e40 693a bae9 de3d
00000200: 37e7 073d 3105 c73d b240 b43b d948 ec3a
00000210: 078e 03bd a9d3 6dbd 1f63 7dbd c70c c03e
00000220: 5483 2a3d 540a e1bc 1b83 023f 8f33 5f3e
00000230: 3f3b 833d 051b a6be d7b5 153e 32f5 563b
00000240: 2824 583e 97e2 5fbe fa31 283d 3276 9bbc
00000250: 62bc 14be 17e0 64bd c218 663e 6f26 163e
00000260: db0f 9e3d 5995 e1bd 4d79 34bd 10bb 68bd
00000270: 5a13 8ebc dde9 e53d 3d2f 423d af79 f0bc
00000280: 14bd b53e 9043 003e 18f3 9ebd e5c7 ff3d
00000290: bc7e 4d3c 152e bb3c d934 43bd 0bb9 03bd
000002a0: 72c7 63be fc70 0d3e 5579 153c 059b a33d
000002b0: f6f8 c83d 2def 993c ac5b 99bc be96 683d
000002c0: ce57 ea3d 8a93 4e3d 6a55 a3bd b5ef 793c
000002d0: e67f 5dba 1737 ecbd 684f 333e c60f 153d
000002e0: 2839 4fbe 1325 363c 31ca 9dbc 8089 053e
000002f0: 2ac1 1e3c c547 dd3c dabe 4ebc aaa7 903d
00000300: 7295 f2bd 949b 1fbd e420 143d fc49 96bc
00000310: 57e8 393d 2ddb 913d e1b6 fe3c 0c50 3dbe
00000320: 0578 17be 8dba 903d 017a 13bb 2ea0 4d3d
00000330: eb53 003d 7ad3 2d3d a1ac 4bbd 864d cbbc
00000340: 2f9f 93bb 73be 8ebc 6c60 273e 9144 c03c
00000350: 2f33 0ebd eb61 adbe 7921 b63c e89f 493d
00000360: 514b 0d3d 4202 043e 9565 b13c 4dd3 033e
00000370: 5f1a 853d 5f0c 85bd 72c9 c53d 33ef 663d
00000380: 2da4 c6bb bfa6 303e 2469 e0bd e7bd 963d
00000390: b53f e03d 8f33 3cbd a053 9a3d 7c33 82be
000003a0: 707a 743c 43d6 273e 5e4a 44bd 980f 32b9
000003b0: 1093 f23d 26a1 e63d 86c2 473b 1d78 3a3e
000003c0: 13c1 94bd aa58 22bd aa30 fd3d 1fd0 1d3c
000003d0: bff3 bfbc 8543 1f3e 0c20 cdbd 0441 9fbd
000003e0: 2a5e d43c 0d75 153e 1fda dbbc 55bc 173d
000003f0: 33cd 04be 0f5d 6b3d 94f2 d13b 759b 103c

features_extractor.network_cnn.2.bias f4 [64]
0.00121149 0.04975818 0.1567278 -0.0759383 0.1540695 0.13779053 0.015186095 0.099749334
0.060520917 0.09069343 0.0033553676 -0.037625976 0.1442596 -0.13511567 0.12332164 0.19084242
0.15359317 -0.029559357 -0.014594842 0.08354736 -0.03666936 -0.0021607555 0.16859543 0.16985993
0.029472813 -0.11343959 0.041483466 0.12147 -0.059153732 0.050997354 0.1433891 -0.032846656
0.21086803 0.15838976 0.10257857 0.051349055 0.115218446 0.11111096 -0.040182184 0.11300113
-0.005974151 0.11002741 0.11121801 0.05963754 0.11942758 0.048649937 0.1761405 0.17985725
0.17648646 0.0024967608 0.10383543 0.1557978 0.09468796 0.08508131 0.024128204 0.17299135
0.19524685 0.20281349 0.08093101 0.037765685 -0.022380732 0.04372874 0.13971098 -0.018283997
00000000: dcca 9e3a 3ccf 4b3d 417d 203e 8a85 9bbd
00000010: 65c4 1d3e f618 0d3e 19cf 783c 6149 cc3d
00000020: c8e4 773d 7abd b93d bae5 5b3b b21d 1abd
00000030: cab8 133e c35b 0abe 0e90 fc3d 326c 433e
00000040: 8747 1d3e 7726 f2bc 341f 6fbc e11a ab3d
00000050: 9c32 16bd 769b 0dbb 48a4 2c3e c3ef 2d3e
00000060: f870 f13c 0453 e8bd 91ea 293d 43c5 f83d
00000070: 2f4b 72bd 9ae2 503d 98d4 123e 378a 06bd
00000080: caed 573e ed30 223e b714 d23d 6353 523d
00000090: a6f7 eb3d 258e e33d 1396 24bd 236d e73d
000000a0: d0c2 c3bb 0d56 e13d 45c6 e33d 7e46 743d
000000b0: 7296 f43d 2845 473d 2d5e 343e 802c 383e
000000c0: deb8 343e b2a0 233b aca7 d43d 7589 1f3e
000000d0: c3eb c13d 1c3f ae3d 83a8 c53c a524 313e
000000e0: caee 473e 57ae 4f3e 28bf a53d 31b0 1a3d
000000f0: cc57 b7bc e81c 333d 6510 0f3e 52c8 95bc

features_extractor.video_cnn.0.weight f4 [32, 5, 5]
0.03219972 -0.047202248 0.10676269 -0.02382694 -0.047346264 0.12547566 0.14015906 0.10533587
-0.14889123 -0.07485891 0.0201306 0.086460814 0.02893246 0.16954514 0.19076036 0.15013124
-0.12388384 0.02524912 0.039961465 0.015504315 -0.11058205 0.06760837 0.022613155 -0.24152608
-0.09402106 -0.07382629 -0.06287006 0.0447492 0.054562874 0.01692667 -0.085886136 0.13097379
-0.040295556 -0.058643915 -0.12009743 0.26096216 0.1048273 -0.06612919 -0.08150403 0.022048008
-0.06569172 0.05437587 0.14023916 -0.035501514 0.09576732 0.1355313 0.1750963 0.29027724
0.29841524 0.10731194 0.12495517 0.20360759 -0.03072102 0.18506715 0.11372186 0.23765722
0.21741483 -0.008183001 0.113983184 -0.055864323 -0.020375248 0.23239583 -0.0017656588 0.19709459
-0.08239778 0.12955196 0.14763102 -0.03345322 -0.16455087 0.0018181137 0.19652781 0.1526872
-0.13113926 0.08749289 -0.13633451 -0.031627383 -0.19192068 -0.05985751 0.15195855 -0.1325252
0.025542567 0.020999705 0.16160107 0.15046999 0.24382088 0.026877677 -0.13667543 -0.022698317
0.08400756 -0.123140775 -0.26330033 0.06209096 -0.21321966 0.07693109 -0.03273754 -0.00073694304
0.021871245 0.07873132 0.2622418 0.28430697 0.0066749235 -0.15530057 -0.014953061 -0.20107734
-0.060136907 0.0067133643 0.061130863 -0.18510626 -0.023520356 0.12862489 -0.01810726 0.117203794
0.024137512 0.18105483 0.064660944 0.03619145 0.12089672 0.09296651 0.16689269 0.020032348
0.26201692 0.2985041 0.051611036 0.15564393 0.2340073 0.30478686 0.056252368 0.062812224
-0.09978209 0.13646783 -0.11156807 0.08480062 0.16325556 0.2111202 0.08653196 -0.049219698
0.30176297 0.17917599 0.01731847 -0.009911978 -0.05812656 0.29968217 -0.06014215 0.052588023
0.15798429 0.07153628 0.09130417 0.2179095 -0.16205779 0.12816517 -0.13961856 -0.21685275
0.059726585 0.11895319 0.19325358 0.029196694 0.11030449 0.19473737 -0.052364837 0.2553063
-0.20701961 0.0043472615 0.0973218 -0.053430505 0.21238545 0.11399505 -0.10702325 -0.06866914
0.120050855 0.005758526 -0.025782302 0.18359719 0.214206 -0.05521068 0.24300385 -0.08950353
0.0107209245 0.1999653 0.0047659795 -0.16601615 0.14709345 0.17873797 0.17169793 -0.15478793
0.03340229 0.117906354 0.14964388 0.10066101 -0.1326761 0.081812605 0.042929728 -0.04700409
0.36722422 -0.10658708 -0.1356699 -0.07213826 0.1713535 0.37512338 -0.17604318 -0.15050083
-0.10295733 0.13318662 0.08787382 0.08054815 -0.028633673 0.16023138 -0.104656786 0.1474803
-0.084166326 -0.14987393 0.15869789 0.15520994 0.0025002814 -0.17938177 -0.17278802 -0.1690369
-0.025845362 0.12864412 -0.07992358 -0.044350047 -0.13982968 -0.04451956 0.088548325 -0.09446082
0.1330645 0.03848791 -0.1015413 0.13877702 -0.19908507 0.16666663 -0.19935225 -0.18851401
-0.011336197 0.12880471 0.062176306 -0.14102541 -0.19786522 0.03653734 0.13786277 -0.04105888
-0.10359322 -0.11126996 -0.048061885 0.047876842 -0.1807097 0.030183299 -0.10450361 -0.008121634
-0.09999362 -0.10739427 -0.14830379 0.08546813 0.062965654 -0.1863225 -0.09339664 0.047448684
00000000: dbe3 033d 2557 41bd 66a6 da3d b730 c3bc
00000010: 28ee 41bd b17c 003e db85 0f3e 55ba d73d
00000020: f176 18be a14f 99bd eee8 a43c 5e12 b13d
00000030: c403 ed3c 3e9d 2d3e af56 433e 01bc 193e
00000040: d0b6 fdbd 3ed7 ce3c a2ae 233d cf05 7e3c
00000050: d878 e2bd 4276 8a3d 393f b93c 9d52 77be
00000060: 1d8e c0bd 3d32 97bd 05c2 80bd f04a 373d
00000070: 527d 5f3d cda9 8a3c 12e5 afbd fe1d 063e
00000080: f40c 25bd 9a34 70bd a4f5 f5bd d59c 853e
00000090: b2af d63d be6e 87bd 96eb a6bd 069e b43c
000000a0: 6189 86bd 3bb9 5e3d db9a 0f3e 096a 11bd
000000b0: a821 c43d b8c8 0a3e 724c 333e 389f 943e
000000c0: e2c9 983e 5dc6 db3d 7fe8 ff3d 827e 503e
000000d0: a6aa fbbc 3e82 3d3e 02e7 e83d 6a5c 733e
000000e0: fea1 5e3e fe11 06bc 0470 e93d fdd1 64bd
000000f0: fee9 a6bc 2cf9 6d3e ae6d e7ba 2ad3 493e
00000100: 2bc0 a8bd 45a9 043e 962c 173e 3e06 09bd
00000110: 0680 28be c64d ee3a 963e 493e 095a 1c3e
00000120: 5f49 06be 792f b33d 469b 0bbe b78b 01bd
00000130: db86 44be 262d 75bd 069b 1b3e b0b4 07be
00000140: a53e d13c 9307 ac3c c07a 253e ce14 1a3e
00000150: 2eac 793e 932e dc3c a5f4 0bbe d2f1 b9bc
00000160: 280c ac3d 3b31 fcbd 4dcf 86be 1753 7e3d
00000170: 4156 5abe 0c8e 9d3d cc17 06bd 692f 41ba
00000180: 532b b33c e33d a13d 8f44 863e af90 913e
00000190: 51b9 da3b 1d07 1fbe affd 74bc 38e7 4dbe
000001a0: 1e52 76bd c8fb db3b 5b64 7a3d 7f8c 3dbe
000001b0: c3ad c0bc 3eb6 033e ad55 94bc 8b08 f03d
000001c0: 08bc c53c 7066 393e f56c 843d 7c3d 143d
000001d0: b398 f73d 3a65 be3d ebe5 2a3e e11a a43c
000001e0: 1527 863e 88d5 983e 1866 533d 1f61 1f3e
000001f0: 9c9f 6f3e 060d 9c3e e268 663d b2a3 803d
00000200: 8d5a ccbd 39be 0b3e cd7d e4bd f3ab ad3d
00000210: 772c 273e e52f 583e ab37 b13d 989a 49bd
00000220: ad80 9a3e e979 373e 77df 8d3c d965 22bc
00000230: 1e16 6ebd f16f 993e 9d57 76bd 8a66 573d
00000240: a2c6 213e 9d81 923d aefd ba3d ab23 5f3e
00000250: 7af2 25be bb3d 033e 2bf8 0ebe a60e 5ebe
00000260: dda3 743d bb9d f33d 44e4 453e e82d ef3c
00000270: 52e7 e13d 3c69 473e 837c 56bd 82b7 823e
00000280: f3fc 53be 7973 8e3b a750 c73d f2d9 5abd
00000290: 927b 593e 3d76 e93d 012f dbbd 68a2 8cbd
000002a0: 39dd f53d 04b2 bc3b 6835 d3bc e700 3c3e
000002b0: d158 5b3e 9824 62bd 00d6 783e a04d b7bd
000002c0: d1a6 2f3c b4c3 4c3e ef2b 9c3b 2300 2abe
000002d0: aa9f 163e 1607 373e 95d1 2f3e ba80 1ebe
000002e0: d7d0 083d e378 f13d 3f3c 193e 5c27 ce3d
000002f0: 3edc 07be 5e8d a73d 15d7 2f3d 5c87 40bd
00000300: d004 bc3e 544a dabd 0ded 0abe 39bd 93bd
00000310: 4b77 2f3e 2c10 c03e aa44 34be e41c 1abe
00000320: 4bdb d2bd 1362 083e 30f7 b33d 6ef6 a43d
00000330: 2a91 eabc b213 243e 4c56 d6bd 1305 173e
00000340: 655f acbd 8d78 19be b381 223e 5bef 1e3e
00000350: c3db 233b dbaf 37be 58ef 30be 0218 2dbe
00000360: a7b9 d3bc 49bb 033e f9ae a3bd 65a8 35bd
00000370: 832f 0fbe 245a 36bd d358 b53d ad74 c1bd
00000380: 0f42 083e 80a5 1d3d e3f4 cfbd 901b 0e3e
00000390: f5dc 4bbe a8aa 2a3e ff22 4cbe d109 41be
000003a0: 75bb 39bc 62e5 033e 95ac 7e3d f768 10be
000003b0: 2e9d 4abe 2ea8 153d e62b 0d3e 5b2d 28bd
000003c0: af28 d4bd 81e1 e3bd 8adc 44bd 821a 443d
000003d0: f70b 39be f742 f73c fd05 d6bd 9a10 05bc
000003e0: 74c9 ccbd 87f1 dbbd f3dc 17be ea09 af3d
000003f0: 23f4 803d 53cb 3ebe bd46 bfbd 8d59 423d

features_extractor.video_cnn.0.bias f4 [32]
-0.061517525 -0.021102915 0.074688464 -0.12598152 -0.033254992 -0.036148917 -0.23552221 0.02500996
-0.18058957 -0.16371572 -0.119376734 0.27826396 -0.14885584 0.32066852 0.01920901 0.27759218
-0.1513278 -0.015113827 -0.08533237 -0.02052139 0.029379053 0.114484906 0.12643349 0.29460144
0.16315426 -0.0074104336 -0.17662989 0.24284475 -0.013235747 0.3013654 0.23192568 0.26140842
00000000: cdf9 7bbd 05e0 acbc 44f6 983d 4d01 01be
00000010: 6336 08bd e310 14bd bc2c 71be b0e1 cc3c
00000020: 79ec 38be 18a5 27be ca7b f4bd 9d78 8e3e
00000030: aa6d 18be aa2e a43e 375c 9d3c 9020 8e3e
00000040: adf5 1abe fc9f 77bc bdc2 aebd 791c a8bc
00000050: 57ac f03c 1077 ea3d c877 013e 00d6 963e
00000060: e911 273e 39d3 f2bb 77de 34be 4bac 783e
00000070: bfda 58bc 914c 9a3e ed7d 6d3e 53d7 853e

features_extractor.video_cnn.2.weight f4 [32, 32, 5]
-0.3271825 -0.21089014 0.0026270733 0.14663842 0.17689557 0.15282013 0.046843883 0.03181698
-0.06447795 -0.2536507 0.09800813 0.03860074 0.10286928 -0.03470282 -0.018751247 -0.05838177
-0.2171477 -0.09453033 -0.10776655 0.08064891 -0.025179695 -0.018502437 -0.017082272 -0.0094481995
-0.19250196 -0.011470903 -0.0094627235 -0.07192938 0.013842883 -0.08375449 -0.0038481536 -0.02925138
-0.29814836 -0.27310777 -0.18942602 0.057564724 0.051667746 0.023676123 0.021606587 0.086703755
0.014014973 -0.026703544 0.037985142 -0.019798284 0.07083221 0.037281513 -0.048561063 0.0013628888
-0.07593505 0.0611317 -0.007757791 -0.06017276 0.0402372 0.07798748 0.06628887 0.083107814
-0.0014785419 0.06226995 -0.010325435 0.1298559 -0.09716866 -0.19562133 -0.23821886 -0.17197599
0.028931946 0.024061473 0.051205453 -0.08163247 0.017847624 -0.051139355 0.07566888 -0.06217595
-0.026971528 -0.17063965 -0.08189505 0.09131986 0.033657007 0.02271648 0.10105305 0.055170443
-0.06527326 -0.028010782 0.047608785 -0.06394997 -0.051086295 0.026111495 0.10561748 -0.025218166
-0.01662866 -0.019098045 -0.18865457 -0.253615 -0.4298308 -0.36562023 -0.3160782 -0.08735471
0.04498105 0.036674272 -0.12035696 -0.11187639 0.06103024 -0.04915631 0.00793022 -0.13360555
-0.025996631 -0.04452472 0.049718555 -0.07034224 -0.08708992 0.0012632369 0.040509354 -0.06623918
-0.021023009 0.12381901 0.48904228 -0.04112535 -0.055141874 -0.06108323 0.0011155553 -0.15995678
-0.036977157 0.024670819 -0.0076529225 -0.008889372 -0.008640884 0.0053740316 0.07774669 0.038635366
-0.036738966 -0.108163476 -0.062141884 -0.029798187 -0.054722115 0.0007368689 -0.052158672 -0.074366346
-0.027309336 0.026065983 0.009188307 -0.03424857 -0.1027987 -0.13035394 -0.09570784 -0.10525383
-0.13710536 -0.03601281 -0.013439322 -0.039720055 -0.10486864 -0.11106436 -0.08600491 -0.067639545
-0.009471546 -0.10319201 -0.064820275 0.016833303 0.0494622 0.07212112 -0.031559564 -0.034138888
0.07346497 0.16426958 0.14253354 0.020968484 0.0019487895 0.12028073 0.127194 0.028308492
-0.09286317 -0.05474828 0.11423947 0.15119152 0.06856994 0.033511933 -0.045020815 0.03457979
0.036503408 -0.1181074 -0.120897174 -0.12765962 0.14663571 0.060785763 0.016053468 -0.07862252
0.017110813 0.19536512 0.08375027 -0.09285972 0.0014684604 0.005606378 0.046407275 -0.09892754
-0.12953413 -0.15828033 -0.06204877 0.2799331 0.13387974 0.032557778 0.035466976 -0.21622299
0.034347344 -0.027005384 -0.0027538685 0.02934602 -0.024896674 -0.06992975 -0.05044043 -0.034873307
0.030352723 -0.021781823 -0.06343438 0.03432339 0.052179236 0.06750019 -0.06320739 0.07683244
0.002867011 -0.06571796 0.011278585 -0.07267263 -0.10097619 -0.023503063 -0.050734285 -0.09839988
0.002273363 -0.011458369 -0.021090051 0.10170612 0.018467972 0.04867904 0.10688773 0.07784529
-0.070667095 0.044810988 -0.13168655 -0.005409773 0.0039339107 0.0031556191 0.02917151 0.08699012
0.011226855 -0.1194352 -0.17276372 -0.08791858 -0.16301005 0.15078196 0.15797319 0.076535195
-0.08517035 -0.005774398 0.030962022 -0.048579704 -0.07471165 -0.16655777 -0.15266068 0.31507057
00000000: 7784 a7be 96f3 57be fa2a 2c3b 6228 163e
00000010: 1d24 353e e17c 1c3e 5fdf 3f3d 8652 023d
00000020: 040d 84bd 81de 81be 7db8 c83d cf1b 1e3d
00000030: 21ad d23d 8b24 0ebd 379c 99bc b921 6fbd
00000040: f75b 5ebe 1e99 c1bd b5b4 dcbd 412b a53d
00000050: a645 cebc 6c92 97bc 1ff0 8bbc 9fcc 1abc
00000060: 3c1f 45be 74f0 3bbc 8a09 1bbc b64f 93bd
00000070: 42cd 623c 7987 abbd 4e31 7cbb 97a0 efbc
00000080: e7a6 98be c8d4 8bbe e5f8 41be fdc8 6b3d
00000090: 8fa1 533d 6ef4 c13c 4c00 b13c bd91 b13d
000000a0: 0f9f 653c 64c1 dabc 4f96 1b3d 0330 a2bc
000000b0: 7a10 913d 80b4 183d f7e7 46bd f6a2 b23a
000000c0: d683 9bbd 3c65 7a3d 1135 febb b677 76bd
000000d0: c3cf 243d e6b7 9f3d 76c2 873d 6e34 aa3d
000000e0: a2cb c1ba c60e 7f3d 032c 29bc f2f8 043e
000000f0: 5d00 c7bd f550 48be a5ef 73be 791a 30be
00000100: b002 ed3c 911c c53c cfbc 513d ed2e a7bd
00000110: 2e35 923c 8077 51bd 49f8 9a3d 35ac 7ebd
00000120: 65f3 dcbc 29bc 2ebe 98b8 a7bd e805 bb3d
00000130: eedb 093d e917 ba3c e7f4 ce3d 67fa 613d
00000140: fdad 85bd de76 e5bc 6e01 433d 34f8 82bd
00000150: dd3f 51bd c6e7 d53c fa4d d83d 5496 cebc
00000160: d438 88bc 8173 9cbc aa2e 41be d3d9 81be
00000170: c812 dcbe 9332 bbbe 00d5 a1be 07e7 b2bd
00000180: 0d3e 383d c337 163d b67d f6bd 731f e5bd
00000190: d8fa 793d 2058 49bd c1ed 013c e5cf 08be
000001a0: e3f6 d4bc 8e5f 36bd afa5 4b3d 980f 90bd
000001b0: 335c b2bd 3293 a53a 23ed 253d 68a8 87bd
000001c0: 7238 acbc d294 fd3d c063 fa3e 0e73 28bd
000001d0: 72dc 61bd 6932 7abd d337 923a b6cb 23be
000001e0: 5c75 17bd 751a ca3c 5ec5 fabb bba4 11bc
000001f0: 7f92 0dbc a518 b03b a839 9f3d 1e40 1e3d
00000200: 997b 16bd d084 ddbd 7d88 7ebd 541b f4bc
00000210: 4c24 60bd 6f2a 413a 55a4 55bd 624d 98bd
00000220: d4b7 dfbc 5488 d53c 8e8a 163c 3b48 0cbd
00000230: 2088 d2bd 817b 05be 7902 c4bd 528f d7bd
00000240: 5965 0cbe 2b82 13bd 9a30 5cbc 7fb1 22bd
00000250: 5fc5 d6bd b675 e3bd 5823 b0bd 9a86 8abd
00000260: 8b2e 1bbc 5556 d3bd 7ec0 84bd ffe5 893c
00000270: e098 4a3d 3db4 933d 9a44 01bd 38d5 0bbd
00000280: cd74 963d 4936 283e 50f4 113e 19c6 ab3c
00000290: 866e ff3a be55 f63d 253f 023e 36e7 e73c
000002a0: 0c2f bebd bc3f 60bd 62f6 e93d f3d1 1a3e
000002b0: 666e 8c3d cf43 093d bf67 38bd 8aa3 0d3d
000002c0: 9984 153d 4be2 f1bd f098 f7bd 34b9 02be
000002d0: ac27 163e 7efa 783d 9082 833c d804 a1bd
000002e0: fa2b 8c3c cb0d 483e 4385 ab3d 3d2d bebd
000002f0: 5b79 c03a b5b5 b73b 8e15 3e3d 869a cabd
00000300: 98a4 04be 3d14 22be da26 7ebd 6453 8f3e
00000310: c517 093e 4e5b 053d d245 113d 8f69 5dbe
00000320: cdaf 0c3d 653a ddbc 3f7a 34bb 1167 f03c
00000330: 1cf4 cbbc 5437 8fbd a09a 4ebd 50d7 0ebd
00000340: 46a6 f83c cb6f b2bc e2e9 81bd af96 0c3d
00000350: e5b9 553d 8a3d 8a3d e072 81bd 545a 9d3d
00000360: 76e4 3b3b 2397 86bd d0c9 383c 63d5 94bd
00000370: 9bcc cebd 7f89 c0bc c1ce 4fbd e085 c9bd
00000380: b4fc 143b e2bb 3bbc 0bc5 acbc 4c4b d03d
00000390: 254a 973c ac63 473d f4e7 da3d 5a6d 9f3d
000003a0: e9b9 90bd ba8b 373d d7d8 06be 7744 b1bb
000003b0: 09e8 803b 81ce 4e3b 17f9 ee3c e027 b23d
000003c0: d8f0 373c 719a f4bd f9e8 30be a80e b4bd
000003d0: 1bec 26be 9666 1a3e b9c3 213e 7cbe 9c3d
000003e0: cb6d aebd 2937 bdbb 11a4 fd3c 83fb 46bd
000003f0: 6c02 99bd 1f8e 2abe 1553 1cbe ee50 a13e

features_extractor.video_cnn.2.bias f4 [32]
0.01674282 -0.03708767 0.056794614 0.19585021 0.2218184 0.08864931 0.04213819 -0.012548411
-0.048325762 0.17430262 -0.032789208 -0.030949006 0.094079815 0.13051741 0.14283 0.1724926
-0.078748055 0.010236991 -0.03364716 0.14079936 0.16141179 0.16744187 -0.008831087 0.17678843
-0.012446582 0.042837836 -0.07240785 0.017604658 0.13878666 0.012666385 0.036476016 0.031040648
00000000: 3d28 893c 3ee9 17bd 78a1 683d f58c 483e
00000010: 5d24 633e c58d b53d 1899 2c3d da97 4dbc
00000020: 3cf1 45bd 637c 323e fa4d 06bd c588 fdbc
00000030: ebac c03d 5ba6 053e 0742 123e e6a1 303e
00000040: a946 a1bd 0db9 273c 9bd1 09bd b52d 103e
00000050: 2249 253e e275 2b3e 43b0 10bc 0708 353e
00000060: c0ec 4bbc ba76 2f3d 914a 94bd a537 903c
00000070: 171e 0e3e ab86 4f3c e067 153d f548 fe3c

features_extractor.quality_cnn.0.weight f4 [32, 5, 5]
-0.039646577 -0.16222179 -0.03536992 -0.06668454 0.14928837 -0.1904441 -0.19061938 0.18426755
-0.12682103 0.057170656 0.10074868 -0.10455191 0.11143551 0.12081339 -0.09556019 0.19951056
-0.112963796 -0.013454795 -0.001919055 -0.18141738 0.1361088 0.15792008 -0.1462829 -0.061672855
-0.14228208 0.20637535 0.03355042 0.014945534 0.2332299 -0.014954385 0.09625374 0.09193175
0.0054003703 0.17726973 -0.12092785 -0.19668965 0.082483806 -0.09639464 0.13569587 0.10040647
-0.16852684 -0.05416763 0.014287781 0.01083007 0.01794611 -0.0046639717 -0.017836705 0.015099716
-0.20008954 -0.2140056 0.0978274 -0.014458847 0.014276194 -0.15003815 -0.13610505 -0.051609397
0.12985276 -0.076717846 0.16816148 -0.04716256 0.061625555 -0.1142667 0.12951076 -0.18533291
-0.11387577 0.12731577 0.062248446 -0.045084275 -0.056482505 0.005181595 0.19916114 0.14864688
-0.1984678 0.04294144 -0.041014902 0.017467665 -0.033826467 -0.19321448 -0.19096279 0.07057233
-0.12623349 0.0025613839 0.081490695 0.12976106 0.09351564 0.029028762 -0.10849105 0.19626923
-0.16393092 0.013667402 0.09870916 -0.00881171 -0.18950862 -0.12190894 0.009143136 0.12813774
0.06694137 0.10434386 0.12089585 -0.15262507 0.17096739 -0.13233161 -0.23064865 -0.09936885
-0.2397006 -0.09748495 -0.13011335 0.09564138 -0.008254684 -0.02415621 0.18089724 0.18471257
0.15421829 -0.07392847 0.13067356 0.08503543 0.030851694 0.16046055 -0.18499133 0.12058005
0.036962748 -0.040379323 0.10191278 0.08879667 -0.26911473 -0.08296678 0.1414799 0.18023925
0.048443653 0.14255664 -0.14874852 -0.20035304 0.17438215 0.08393534 -0.123394966 -0.004692162
0.16527179 0.18259692 0.11934667 0.003998573 0.23303658 0.12155384 -0.033971716 0.24375603
-0.044812974 -0.15145534 -0.17587978 0.20739836 0.034446146 -0.1376008 -0.061894774 -0.11446798
-0.10983329 -0.19130301 -0.19855416 -0.058953192 0.06371267 0.0640228 -0.10609722 0.023990346
0.16734734 0.081334166 -0.07008741 0.028059674 0.019658947 -0.085908584 -0.03127978 -0.06314919
0.039129805 -0.19442554 0.19776945 -0.1430238 0.081077 -0.19793864 0.12792118 0.09146435
0.17156349 0.18713607 0.094622806 0.23425332 0.016959384 0.029322738 0.0051226243 0.1660963
-0.18327147 -0.12648368 -0.07554281 -0.2180961 -0.072910234 0.009627306 0.12611073 -0.06919558
0.11352187 -0.092121325 -0.005572283 0.17682335 0.075253054 0.06949891 -0.0031824452 0.20739594
-0.004307623 -0.021063218 0.18120949 -0.017698117 0.1610784 -0.110688694 0.12763204 -0.15688244
-0.15254083 -0.13252726 0.12911043 -0.010419422 0.07950565 0.0048454152 0.06777136 0.22384292
-0.074931026 0.20694445 0.19966696 -0.07803004 -0.224352 -0.04100137 -0.20201796 -0.042556226
-0.2850267 0.25011852 0.23263581 -0.018093403 -0.10038355 0.07191816 0.1608379 -0.13248739
0.07437994 -0.15927415 -0.1881258 0.07669331 0.18106885 0.19822109 0.036831684 -0.18734927
0.12793612 0.021555016 -0.14085457 0.025611509 -0.028854167 0.18508624 -0.13719133 -0.07081259
-0.1989783 -0.098165765 0.09919076 0.09241259 -0.1307182 -0.034248013 0.10686117 0.13703835
00000000: 7364 22bd 781d 26be 0de0 10bd e791 88bd
00000010: 0ddf 183e c703 43be ba31 43be a2b0 3c3e
00000020: 5fdd 01be c72b 6a3d 5355 ce3d 501f d6bd
00000030: 4d38 e43d 036d f73d 10b5 c3bd 7f4c 4c3e
00000040: 9059 e7bd 8071 5cbc cd88 fbba 7ac5 39be
00000050: 1b60 0b3e cdb5 213e 2fcb 15be ad9c 7cbd
00000060: 65b2 11be 0f54 533e 2a6c 093d 1dde 743c
00000070: d2d3 6e3e 3d03 75bc ae20 c53d b746 bc3d
00000080: 97f5 b03b 3286 353e 05a9 f7bd 0369 49be
00000090: 45ed a83d 8e6a c5bd dcf3 0a3e e8a1 cd3d
000000a0: 4d92 2cbe e0de 5dbd 4c17 6a3c 9b70 313c
000000b0: b803 933c 3bd4 98bb 481e 92bc cd64 773c
000000c0: 46e4 4cbe 4924 5bbe bb59 c83d cde4 6cbc
000000d0: b3e6 693c 9aa3 19be 1f5f 0bbe 6064 53bd
000000e0: 1ff8 043e 3f1e 9dbd 8632 2c3e 872d 41bd
000000f0: 146b 7c3d a904 eabd 789e 043e e9c7 3dbe
00000100: b337 e9bd 115f 023e 3af8 7e3d 4aaa 38bd
00000110: 335a 67bd 5fca a93b e6f0 4b3e e336 183e
00000120: 253b 4bbe 5de3 2f3d 3eff 27bd 5918 8f3c
00000130: 9f8d 0abd 04da 45be c08b 43be 3a88 903d
00000140: 5a43 01be e4dc 273b 98e4 a63d 15e0 043e
00000150: 2185 bf3d bacd ed3c 8e30 debd cdfa 483e
00000160: 82dd 27be 3ded 5f3c 0728 ca3d fe5e 10bc
00000170: 8c0e 42be 65ab f9bd 18cd 153c 8a36 033e
00000180: 8f18 893d 3cb2 d53d 3e98 f73d bf49 1cbe
00000190: 1312 2f3e f081 07be 292f 6cbe e581 cbbd
000001a0: 1374 75be 31a6 c7bd 6f3c 05be a1df c33d
000001b0: a73e 07bc 3ee3 c5bc 203d 393e 4b25 3d3e
000001c0: 66eb 1d3e cf67 97bd 4acf 053e 0e27 ae3d
000001d0: b1bc fc3c c54f 243e 5e6e 3dbe acf2 f63d
000001e0: 4066 173d ca64 25bd a6b7 d03d 07db b53d
000001f0: 68c9 89be 7dea a9bd 1be0 103e a390 383e
00000200: da6c 463d 5efa 113e 8851 18be 5929 4dbe
00000210: 3c91 323e 4be6 ab3d 80b6 fcbd b5c0 99bb
00000220: 023d 293e b0fa 3a3e 076c f43d 7606 833b
00000230: 24a1 6e3e 38f1 f83d ed25 0bbd 2e9b 793e
00000240: cf8d 37bd 1c17 1bbe d419 34be 3c60 543e
00000250: 6717 0d3d 39e7 0cbe 6085 7dbd 306e eabd
00000260: 47f0 e0bd f0e4 43be c851 4bbe e778 71bd
00000270: ca7b 823d 631e 833d 8049 d9bd 6787 c43c
00000280: 1a5d 2b3e 8792 a63d fd89 8fbd 67dd e53c
00000290: cd0b a13c d7f0 afbd 3a1f 00bd 5d54 81bd
000002a0: 9346 203d 7d17 47be 1384 4a3e d574 12be
000002b0: b30b a63d 6db0 4abe c5fd 023e a951 bb3d
000002c0: 57ae 2f3e 99a0 3f3e 9ac9 c13d 1ae0 6f3e
000002d0: 68ee 8a3c 3d36 f03c b0db a73b 2615 2a3e
000002e0: 84ab 3bbe f084 01be 30b6 9abd 9654 5fbe
000002f0: f651 95bd d9bb 1d3c 2c23 013e 6ab6 8dbd
00000300: 277e e83d 1baa bcbd b397 b6bb 2e11 353e
00000310: 461e 9a3d 7255 8e3d 9290 50bb 9a5f 543e
00000320: f626 8dbb c58c acbc fb8e 393e a4fb 90bc
00000330: bcf1 243e c1b0 e2bd f9b1 023e caa5 20be
00000340: aa33 1cbe 3ab5 07be 8635 043e 39b6 2abc
00000350: dcd3 a23d 4ac6 9e3b b6cb 8a3d 1437 653e
00000360: 7075 99bd 3fe9 533e 7f75 4c3e 37ce 9fbd
00000370: 88bc 65be 0df1 27bd ccdd 4ebe 704f 2ebd
00000380: 05ef 91be 890f 803e 1538 6e3e 9e38 94bc
00000390: e495 cdbd d449 933d b1b2 243e c6aa 07be
000003a0: 8354 983d c318 23be 0da4 40be 6211 9d3d
000003b0: 1d6a 393e 78fa 4a3e d2dc 163d 7dd8 3fbe
000003c0: b001 033e 2594 b03c 2e3c 10be 3acf d13c
000003d0: 935f ecbc 3f87 3d3e e27b 0cbe 3106 91bd
000003e0: f8c0 4bbe 220b c9bd 8624 cb3d d042 bd3d
000003f0: feda 05be a547 0cbd 07da da3d c853 0c3e

features_extractor.quality_cnn.0.bias f4 [32]
-0.12740973 -0.11273634 0.106006995 -0.18190381 0.051642545 0.06757709 -0.14761923 0.22322093
0.1288977 0.06966464 0.20574832 0.27173823 -0.11637276 0.28633857 0.1825965 0.22950962
0.0013649457 0.096024945 0.05096483 0.21748213 0.07586145 0.29092667 -0.034895238 -0.15977265
0.1944159 -0.32230526 0.20365292 -0.089534946 0.14816155 -0.18124783 -0.041864134 0.15874279
00000000: b277 02be 4fe2 e6bd 321a d93d fe44 3abe
00000010: 2287 533d db65 8a3d 7f29 17be 0794 643e
00000020: c2fd 033e 56ac 8e3d b0af 523e 4621 8b3e
00000030: d754 eebd f89a 923e 94fa 3a3e 9204 6b3e
00000040: fae7 b23a baa8 c43d 7fc0 503d a3b3 5e3e
00000050: 3f5d 9b3d 57f4 943e 4fee 0ebd 719b 23be
00000060: f614 473e 3205 a5be 648a 503e 195e b7bd
00000070: a9b7 173e 0899 39be ba79 2bbd 788d 223e

features_extractor.quality_cnn.2.weight f4 [32, 32, 5]
-0.003584701 -0.014115495 0.015545306 0.018501319 0.076717295 0.16354646 0.1437375 0.16273616
0.037793484 0.08730407 0.097539224 -0.022130264 -0.035625473 -0.14904691 0.097463325 0.008750304
-0.06373093 0.03805528 -0.027409999 0.011736145 0.061874878 0.08313279 -0.07112876 -0.18680243
-0.18681635 0.03766077 0.04488576 -0.005748946 0.049829386 0.15339102 0.057037693 -0.0441835
-0.0496512 0.0036790855 -0.037702337 0.058273498 0.013084072 0.0671396 0.08191657 0.0431144
-0.124892965 -0.11313946 -0.08479252 -0.13115746 -0.13499698 0.25688592 0.14933808 0.06097389
-0.011178838 -0.146173 0.050973363 0.002497706 0.015931 0.04871276 0.07620553 0.09810164
0.06650293 0.08164719 0.09635669 0.055467144 0.07244257 0.021284709 -0.008806614 0.031497486
0.026982794 0.023907911 -0.007776451 -0.021178896 -0.16926146 -0.17784089 -0.005084386 0.0021755705
-0.01689461 0.02553324 -0.037900753 -0.15082502 -0.12028635 -0.03536911 -0.14082874 -0.24806459
-0.046778984 -0.11451543 -0.14872459 -0.05393303 0.019341903 0.114087105 0.090641335 0.07434825
-0.06828395 -0.030183256 0.058596928 0.0893247 -0.052678432 -0.036740504 -0.010490669 -0.054422457
0.06667843 -0.037561413 -0.054731272 0.07651913 -0.008056151 0.017706387 0.055522546 0.14659645
-0.09275432 0.120085694 0.07773387 0.043066666 0.051542327 0.09969067 -0.10898723 0.0408088
0.0524688 -0.07891512 -0.17291737 0.1496425 0.022637753 0.13365771 0.11032195 0.14979908
0.020442137 -0.13609974 -0.04501099 -0.09597941 -0.06149421 -0.028348124 0.14261734 0.11289393
0.0905046 0.09980304 0.0075950986 -0.009827005 -0.05374816 -0.24978773 -0.4502454 -0.0019731882
-0.013822037 -0.0050616357 0.09555264 0.025319321 0.034681145 0.01840167 0.017810727 -0.042856872
-0.033383362 0.029645082 -0.07257602 0.06372482 0.0096382825 0.032919854 0.064703465 0.017442845
0.0057903975 0.06084693 0.010526279 -0.15841429 -0.028456707 0.033531003 -0.074468926 0.0023784584
0.021380639 -0.04316411 0.057545736 -0.008864225 -0.06976948 0.0024112882 0.030016493 -0.035920113
-0.06425196 0.020211702 0.023062682 -0.06999095 0.01032672 -0.028303953 -0.031173423 0.05878708
-0.008643875 -0.047177352 0.019052804 0.0057414477 -0.0013908697 -0.01705151 -0.01726958 -0.07546721
0.009182899 0.050188247 0.05654444 -0.0048317085 -0.0685881 -0.05035188 0.043457724 0.016089344
0.00029388806 -0.06324791 -0.043495525 0.047435958 0.035867356 -0.042688143 -0.00045311198 -0.07226256
0.05191119 -0.07558605 0.015663335 -0.0068305978 0.007191059 -0.06559617 0.005009046 -0.0030740346
0.07491251 0.025977295 0.053891156 -0.044502534 -0.034569215 -0.0023050571 -0.020518906 0.0762595
0.005637243 0.042042483 -0.063067295 -0.0005571282 -0.023052314 0.04143859 0.033321586 -0.0077684494
-0.06933095 0.07324737 -0.007812386 0.011929928 -0.06958353 0.0666558 0.06960025 0.05197062
-0.062026042 -0.063308306 -0.052554816 0.0562185 -0.028607784 0.031075608 -0.027403401 0.06832348
0.016614335 0.0035055461 -0.048387777 0.071522914 0.021351688 -0.01119142 -0.06463332 0.022390181
0.02823425 -0.073616564 0.019618252 -0.06423066 0.069617644 -0.06842868 0.06200899 -0.030509405
00000000: 4eed 6abb ad44 67bc bdb1 7e3c 1490 973c
00000010: f51d 9d3d b978 273e ec2f 133e 4fa4 263e
00000020: 57cd 1a3d 7acc b23d a5c2 c73d 874a b5bc
00000030: 04ec 11bd c19f 18be da9a c73d 6f5d 0f3c
00000040: 5d85 82bd dadf 1b3d ef8a e0bc f648 403c
00000050: 8370 7d3d 8641 aa3d f5ab 91bd 2349 3fbe
00000060: c94c 3fbe 2e42 1a3d 21da 373d a861 bcbb
00000070: e619 4c3d 8912 1d3e 5ba0 693d c2f9 34bd
00000080: 0f5f 4bbd d01c 713b c46d 1abd 31b0 6e3d
00000090: 935e 563c 7d80 893d e0c3 a73d ba98 303d
000000a0: e2c7 ffbd a9b5 e7bd b3a7 adbd 244e 06be
000000b0: a63c 0abe 8d86 833e 15ec 183e c2bf 793d
000000c0: 7227 37bc 60ae 15be 72c9 503d 8eb0 233b
000000d0: ba81 823c 0887 473d a511 9c3d 83e9 c83d
000000e0: b032 883d a436 a73d a856 c53d 8431 633d
000000f0: c55c 943d 455d ae3c 9e49 10bc 8203 013d
00000100: 050b dd3c 86da c33c 99d1 febb 5d7f adbc
00000110: e052 2dbe ec1b 36be ec9a a6bb 0494 0e3b
00000120: 9166 8abc 162b d13c d23d 1bbd e071 1abe
00000130: b158 f6bd 33df 10bd 6935 10be a504 7ebe
00000140: 529b 3fbd 1187 eabd 424b 18be e2e8 5cbd
00000150: e972 9e3c 80a6 e93d 2aa2 b93d e543 983d
00000160: 75d8 8bbd e042 f7bc 5503 703d deef b63d
00000170: 57c5 57bd 367d 16bd 0ee1 2bbc 15ea 5ebd
00000180: b38e 883d ffd9 19bd e62d 60bd 10b6 9c3d
00000190: f2fd 03bc fc0c 913c 9c6b 633d 611d 163e
000001a0: faf5 bdbd 7def f53d ef32 9f3d ac66 303d
000001b0: 0c1e 533d 9f2a cc3d b234 dfbd 2127 273d
000001c0: 86e9 563d 409e a1bd 4011 31be e23b 193e
000001d0: cf72 b93c 91dd 083e 79f0 e13d ee64 193e
000001e0: 4576 a73c bb5d 0bbe 725d 38bd da90 c4bd
000001f0: 5ae1 7bbd 533a e8bc 480a 123e ef34 e73d
00000200: 7a5a b93d 8965 cc3d 4ee0 f83b 7201 21bc
00000210: 0827 5cbd 5bc8 7fbe 9186 e6be 9b50 01bb
00000220: d375 62bc 14dc a5bb 1ab1 c33d 776a cf3c
00000230: d10d 0e3d 19bf 963c cde7 913c b08a 2fbd
00000240: febc 08bd 3eda f23c bda2 94bd 2982 823d
00000250: e3e9 1d3c f8d6 063d 4083 843d 4ce4 8e3c
00000260: 60bd bd3b a13a 793d 6a76 2c3c 5b37 22be
00000270: 0a1e e9bc ce57 093d 2a83 98bd e9df 1b3b
00000280: 7326 af3c dacc 30bd 14b5 6b3d 413b 11bc
00000290: 4de3 8ebd b406 1e3b 26e5 f53c f820 13bd
000002a0: 8896 83bd 0393 a53c f3ed bc3c 6a57 8fbd
000002b0: 6731 293c b1dd e7bc 685f ffbc b9ca 703d
000002c0: 0a9f 0dbc 0a3d 41bd a014 9c3c c122 bc3b
000002d0: d84d b6ba 9caf 8bbc ef78 8dbc 8d8e 9abd
000002e0: df73 163c 3192 4d3d 259b 673d 4f53 9ebb
000002f0: eb77 8cbd c63d 4ebd ba00 323d cdcd 833c
00000300: fd14 9a39 1f88 81bd 5d28 32bd 354c 423d
00000310: a6e9 123d c3d9 2ebd a98f edb9 65fe 93bd
00000320: d4a0 543d dccc 9abd 6550 803c 35d3 dfbb
00000330: faa2 eb3b 4957 86bd ec22 a43b be75 49bb
00000340: bb6b 993d 56ce d43c f9bc 5c3d 4a48 36bd
00000350: 7398 0dbd 7110 17bb 4417 a8bc f12d 9c3d
00000360: 9fb8 b83b bd34 2c3d 6d29 81bd 3e0c 12ba
00000370: 35d8 bcbc 83bb 293d 377c 083d 7a8e febb
00000380: 63fd 8dbd b802 963d 0bff ffbb bf75 433c
00000390: cf81 8ebd d682 883d 938a 8e3d 25df 543d
000003a0: 050f 7ebd c9a7 81bd b843 57bd 5f45 663d
000003b0: df5a eabc 4692 fe3c 197d e0bc 2eed 8b3d
000003c0: c91a 883c 4ebd 653b 4332 46bd 9b7a 923d
000003d0: bce9 ae3c 385c 37bc 795e 84bd 9d6b b73c
000003e0: 844b e73c 48c4 96bd 75b6 a03c 5d8b 83bd
000003f0: b293 8e3d 5624 8cbd 24fd 7d3d dcee f9bc

features_extractor.quality_cnn.2.bias f4 [32]
-0.016902339 -0.029218893 0.052690893 0.0696314 -0.040466182 0.05415416 -0.15035683 0.032961786
0.026574327 -0.06427522 0.18476574 -0.04780737 -0.2019635 -0.0126047665 -0.077077165 -0.02437952
-0.07098618 -0.06455581 0.07084068 0.050787628 0.09408383 0.17332564 -0.025962112 0.051238947
0.051369168 0.07232344 0.03953509 0.10446121 0.10263108 -0.016128633 0.03670764 0.13127053
00000000: c676 8abc 765c efbc 68d2 573d e89a 8e3d
00000010: debf 25bd c1d0 5d3d 24f7 19be f002 073d
00000020: 67b2 d93c baa2 83bd 3b33 3d3e a9d1 43bd
00000030: 85cf 4ebe 3984 4ebc a2da 9dbd 8fb7 c7bc
00000040: 3461 91bd d635 84bd eb14 913d b006 503d
00000050: 06af c03d 477c 313e 7fae d4bc eedf 513d
00000060: 7a68 523d 501e 943d 8cef 213d c2ef d53d
00000070: 3e30 d23d 3220 84bc c05a 163d c86b 063e

policy_net.0.weight f4 [256, 256]
-0.12260043 0.014695055 -0.0052029565 0.0041756066 0.02539908 0.038349383 -0.08379232 0.016348638
0.073276535 -0.09206613 -0.19934098 0.16291477 -0.00022598288 0.028131705 -0.06895122 -0.12264591
-0.06010695 0.026394738 -0.0388046 -0.16346551 -0.034424685 0.058698278 -0.1183391 0.08651954
-0.022329431 0.009353276 0.13304383 0.04860495 0.16080725 -0.07365096 -0.11861284 0.013539892
0.0070287106 0.012268378 -0.081957676 -0.037266985 -0.053939316 0.005876111 -0.11972594 0.022469599
-0.096189365 0.18572487 0.09402538 -0.09918215 0.06009541 -0.03207314 0.10490105 -0.03642356
0.08832477 0.114161015 0.055339966 0.0064176107 0.1198892 -0.097852394 -0.056870487 0.06061951
-0.008834967 -0.0046183323 0.06221856 -0.035391904 -0.12169134 -0.12515509 -0.026485441 0.1322754
-0.08535271 0.057118174 0.007752378 0.045725536 -0.018618112 -0.0725351 -0.18271165 0.041360307
0.057328627 0.1343477 0.07118123 -0.00044385326 0.025129609 -0.11782242 0.05639127 -0.06036081
-0.029574376 -0.019950243 -0.1191175 0.034265548 0.033810455 -0.12613773 -0.09161833 -0.15916492
-0.018536583 -0.060675353 -0.30126768 0.0039764517 0.025720885 0.11590083 0.071885124 0.0016561361
-0.02025988 -0.08403053 -0.04970204 -0.056581054 -0.03050338 0.03781289 -0.013686333 0.012854924
-0.02851223 0.19811234 0.0804112 -0.15108907 0.023696957 -0.009286417 -0.06431987 -0.025999215
0.09801497 -0.057821747 0.16886097 -0.07151083 -0.04875659 0.09615654 -0.049931172 -0.111308895
-0.04328026 0.08026893 -0.08939503 -0.05182577 0.03584796 0.083644964 -0.087749206 0.06241222
-0.09833223 0.17235456 0.08586289 0.020482434 0.041898143 0.17606299 0.108209595 0.018292999
-0.017047476 0.045157816 -0.089498825 -0.006408268 -0.008407274 0.09380935 -0.024354583 0.13104963
0.123084 0.052418068 -0.09422078 -0.23913734 0.020429889 0.1252196 0.16746292 0.16213536
0.029484617 0.07626742 -0.023378951 -0.04211523 -0.069652215 -0.018649137 0.12119799 0.043665055
-0.1232315 0.0052559827 0.045657624 -0.0063521913 -0.100608684 0.05263354 0.14466256 -0.1498957
0.018198187 -0.027882786 -0.101401135 -0.07855755 -0.14488661 0.12550098 0.09656765 0.15025198
-0.056301124 0.13716453 -0.06429369 -0.091136634 -0.016126474 0.070053 0.013132579 0.09995671
0.021016201 0.016328013 -0.105890155 -0.13240378 -0.0045165415 0.11808583 0.047963012 -0.0704665
-0.1499387 -0.04016156 0.12823851 -0.1299658 -0.13946135 -0.037159983 0.0105999345 0.042969055
-0.10980301 -0.016947435 -0.0459538 -0.04364853 0.061471462 0.011666154 0.011089976 0.053489488
0.05128795 0.12701683 -0.030607214 -0.12282836 0.018988064 0.035601143 -0.09467354 0.2029015
-0.041518006 -0.059698366 0.16451582 -0.00959201 0.071763836 -0.16093628 0.07937682 0.15783906
-0.19351149 -0.016003683 -0.03286339 -0.044665027 -0.007697093 -0.012075957 -0.1135288 0.04436634
0.14883988 0.05596574 0.015424865 -0.16204472 0.046174966 -0.044124655 0.016412491 0.015472454
0.13541609 -0.034006074 -0.0570586 0.032252938 0.053174347 -0.042917203 0.065595925 0.00299695
0.0089938985 -0.14423347 0.07319847 0.075666435 0.007578085 -0.12866151 0.063434534 -0.02176079
00000000: ef15 fbbd 87c3 703c 907d aabb 87d3 883b
00000010: bb11 d03c 3e14 1d3d 4f9b abbd 94ed 853c
00000020: 0212 963d 2b8d bcbd 0b20 4cbe 21d3 263e
00000030: d1f5 6cb9 7674 e63c 4c36 8dbd c72d fbbd
00000040: b532 76bd c739 d83c 92f1 1ebd 8163 27be
00000050: e600 0dbd 9b6d 703d c55b f2bd 2831 b13d
00000060: 36ec b6bc 7c3e 193c a43c 083e fc15 473d
00000070: a8aa 243e 51d6 96bd 4aeb f2bd 6cd6 5d3c
00000080: 1951 e63b 4f01 493c 6dd9 a7bd 44a5 18bd
00000090: 79ef 5cbd 648c c03b e032 f5bd 2a12 b83c
000000a0: eefe c4bd a92e 3e3e 6190 c03d 0320 cbbd
000000b0: 9b26 763d 205f 03bd 5dd6 d63d df30 15bd
000000c0: 9ee3 b43d 40cd e93d 29ac 623d d24a d23b
000000d0: 7888 f53d d666 c8bd 07f1 68bd 2a4c 783d
000000e0: 8ac0 10bc 6155 97bb e4d8 7e3d 1af7 10bd
000000f0: 4f39 f9bd a828 00be fff7 d8bc 3473 073e
00000100: 67cd aebd bff4 693d a907 fe3b b34a 3b3d
00000110: 0385 98bc 488d 94bd c318 3bbe 6d69 293d
00000120: 6cd1 6a3d 7292 093e 77c7 913d fab4 e8b9
00000130: 9cdc cd3c e24c f1bd 88fa 663d e63c 77bd
00000140: f645 f2bc b16e a3bc e0f3 f3bd 085a 0c3d
00000150: d57c 0a3d 402a 01be 64a2 bbbd 21fc 22be
00000160: 08da 97bc b886 78bd c23f 9abe e54c 823b
00000170: 9bb4 d23c 6a5d ed3d 8238 933d b512 d93a
00000180: 0cf8 a5bc 3318 acbd 5e94 4bbd 89c1 67bd
00000190: 39e2 f9bc b0e1 1a3d a43c 60bc 769d 523c
000001a0: 7b92 e9bc f6dd 4a3e a1ae a43d 18b7 1abe
000001b0: 1f20 c23c 0e26 18bc 23ba 83bd 4efc d4bc
000001c0: 13bc c83d 7fd6 6cbd e4e9 2c3e 4574 92bd
000001d0: fdb4 47bd b8ed c43d a184 4cbd ebf5 e3bd
000001e0: a446 31bd 0964 a43d be14 b7bd 4247 54bd
000001f0: 4fd5 123d 0d4e ab3d dbb5 b3bd f5a3 7f3d
00000200: 6862 c9bd b77d 303e e2d8 af3d c7ca a73c
00000210: 639d 2b3d db49 343e fe9c dd3d 33db 953c
00000220: 26a7 8bbc 67f7 383d 294b b7bd 73fc d1bb
00000230: aabe 09bc 1e1f c03d 4383 c7bc e031 063e
00000240: 7713 fc3d 54b4 563d d3f6 c0bd 6be0 74be
00000250: 955c a73c 9139 003e 667b 2b3e d006 263e
00000260: b989 f13c 1832 9c3d 3785 bfbc 0581 2cbd
00000270: d2a5 8ebd 13c6 98bc a736 f83d 21da 323d
00000280: cc60 fcbd 613a ac3b 7d03 3b3d 0b26 d0bb
00000290: ed0b cebd 4496 573d 6c22 143e 427e 19be
000002a0: 5d14 953c 716a e4bc 66ab cfbd c8e2 a0bd
000002b0: 285d 14be 5483 003e 43c5 c53d a8db 193e
000002c0: 029c 66bd dc74 0c3e 69ac 83bd d8a5 babd
000002d0: ab1b 84bc f277 8f3d 072a 573c 1bb6 cc3d
000002e0: 2b2a ac3c 53c2 853c f0dc d8bd db94 07be
000002f0: 7fff 93bb fcd6 f13d dd74 443d be50 90bd
00000300: 8889 19be 7380 24bd f550 033e c115 05be
00000310: f5ce 0ebe 1135 18bd 59ab 2d3c 5200 303d
00000320: 67e0 e0bd 59d5 8abc 0d3a 3cbd cdc8 32bd
00000330: 80c9 7b3d 6523 3f3c bbb2 353c cb17 5b3d
00000340: 5013 523d b310 023e fbbb fabc 6f8d fbbd
00000350: db8c 9b3c 81d2 113d 33e4 c1bd 69c5 4f3e
00000360: c90e 2abd 4686 74bd d676 283e ce27 1dbc
00000370: ebf8 923d 7bcc 24be 5090 a23d 90a0 213e
00000380: e027 46be 281a 83bc c39b 06bd adf2 36bd
00000390: e537 fcbb 3cda 45bc ca81 e8bd 7bb9 353d
000003a0: 7b69 183e 553c 653d 93b8 7c3c 0def 25be
000003b0: f621 3d3d 0ebc 34bd 7d73 863c 2d80 7d3c
000003c0: 84aa 0a3e f449 0bbd 47b6 69bd a81b 043d
000003d0: 58cd 593d f3c9 2fbd 2857 863d 7a68 443b
000003e0: 255b 133c f0b1 13be 14e9 953d 01f7 9a3d
000003f0: 9651 f83b d8bf 03be f7e9 813d af43 b2bc
