lucid_ddos/data/embed_projection.pt (torch, 22370 bytes, 6 tensors)

embedding_projection.0.weight f4 [50, 64]
000000 7e ad e2 bd 64 ca 9f bd 77 aa 09 be e0 37 da bb
       -0.11068247 -0.07802275 -0.13443933 -0.006659493
000010 1e a0 c3 3d 9c 30 e5 bd 5c 2e 51 3d a0 7a a4 3d
       0.09552024 -0.11190912 0.051069602 0.08031201
000020 42 a6 f1 bd fa 50 87 bd 38 52 9a bd 3c 37 d3 3d
       -0.11799289 -0.06607242 -0.07535213 0.103132695
000030 98 02 27 3d 52 a0 db 3d f2 d1 ab 3d 78 cd 27 bd
       0.040773958 0.10723938 0.08389653 -0.040967435
000040 42 eb 4b bc bc 2c 17 bd 9c 38 d8 3c b8 41 c2 3d
       -0.012446227 -0.036907896 0.026394181 0.09485191
000050 56 ac 89 bd ac 46 d0 3d b2 12 81 3d 5c 10 71 3d
       -0.067223236 0.101697296 0.06302394 0.058853492
000060 40 dd 57 bc 64 9c 20 3d 2c 47 2a bd c7 9c 80 bd
       -0.013175309 0.039211646 -0.04157178 -0.06279903
000070 6a 96 a1 bd c7 98 8a b7 a3 2f c2 bd 7e e7 c6 bd
       -0.07890017 -1.6522024e-05 -0.09481742 -0.097121224
000080 c8 00 52 bd 44 fc 94 3d 94 4b c5 3d 42 0b ab 3d
       -0.051270276 0.07274678 0.09633556 0.08351757
000090 2a c0 bd 3d 32 3e bf 3d 8c 67 ae bd 7d e7 aa 3d
       0.09265168 0.09338035 -0.08515844 0.08344934
0000a0 9a 6a b8 bd d0 8c 85 bd 96 ca d4 3c c0 b4 9d 3c
       -0.09004708 -0.065209985 0.025975507 0.019251227
0000b0 b8 51 a2 3d 0e 58 ff bd ba e7 cd bd f0 79 8e bd
       0.07925743 -0.12467967 -0.10053964 -0.069568515
0000c0 66 aa 88 bd ce f1 b9 bd 08 6f a0 3d a2 1f b0 bd
       -0.06673126 -0.09079324 0.078336775 -0.085997835
0000d0 7e 80 b6 3c e4 f9 d4 bd f4 f4 e9 3d bc a6 fe 3d
       0.022278067 -0.10399225 0.11423674 0.12434146
0000e0 ec 30 23 3d 6c 36 ac bd 7a a6 dd bd ea 91 8a bd
       0.039841577 -0.08408818 -0.108227685 -0.06766112
0000f0 c8 ee 94 3d 00 82 80 bd 56 58 da 3d 13 34 42 3d
       0.072721064 -0.062747955 0.1066138 0.047412943
000100 c2 6b ec 3d dc 9d da bd 05 73 00 3d a0 78 3a bc
       0.11543991 -0.106746405 0.03135969 -0.011381298
000110 49 5c f9 3c 0c 91 90 bd 44 70 2c 3d ee ce ac 3d
       0.030439513 -0.070589155 0.042099252 0.08437906
000120 58 c3 f8 3d 4a ca df bd b4 b5 f6 bd 00 af 37 3b
       0.12146634 -0.109272555 -0.12046376 0.0028027892
000130 b4 b2 b4 bd f0 e6 2e 3c 3c 42 c5 bd 14 4e de 3d
       -0.088231474 0.010675177 -0.09631774 0.10854736
000140 2a f0 4d bd 11 cc a0 bc 58 6c 8c bd 54 b2 a0 3d
       -0.050277866 -0.019628556 -0.068566024 0.078465134
000150 2a 38 1c bd 8a c4 84 3d 38 c1 e6 bc 30 4e 24 bd
       -0.0381395 0.06482799 -0.028168306 -0.040113628
000160 bc 70 40 bd 00 3b b7 bd 84 bf f4 bd 78 76 db 3d
       -0.046982512 -0.089468 -0.11950591 0.107159555
000170 80 45 7a bc 94 e3 a8 3d 75 63 25 3d 50 be 94 3c
       -0.015275359 0.08246532 0.040378053 0.018157154
000180 98 a9 89 3c 5e 11 a7 bd 68 2a a6 bd b0 91 35 bc
       0.016804501 -0.081576094 -0.08113557 -0.011082098
000190 06 f3 af bd 08 2e de bd 5c ad 3f 3d 99 e4 dc 3d
       -0.08591275 -0.108486235 0.046796188 0.10785789
0001a0 c8 fb 26 3d 90 50 5d 3c bd 38 ab 3d 80 8f 79 bd
       0.04076746 0.013507977 0.08360431 -0.060927868
0001b0 5d 33 00 3e 1c 60 9d 3d 82 e9 8b bd 00 fd b1 bd
       0.12519594 0.07684347 -0.068316475 -0.08690834
0001c0 e8 37 54 3d c0 99 7a 3b 24 7f e7 3d cc cb 8a bd
       0.05181113 0.0038238615 0.11303547 -0.067771524
0001d0 ad 57 ae 3d 34 eb a4 3d 6a 74 c8 3d 80 4b 0c bb
       0.085128166 0.08052674 0.09787829 -0.0021407306
0001e0 c4 ed d2 bd f8 c1 c9 3d e8 77 1e bd 84 76 1e bd
       -0.102992564 0.0985145 -0.03868857 -0.038687244
0001f0 16 c3 9f bd 76 d4 95 3d 27 6a c3 bd 9f f8 90 bc
       -0.078008816 0.07315914 -0.09541731 -0.017696677
000200 b0 e9 c4 3d 70 56 6f bd f4 2f 64 3c 20 5c 27 3d
       0.09614885 -0.058432043 0.013927449 0.04085934
000210 f6 15 7e 3b 00 d2 40 3d 00 0a ea bc 30 69 82 bc
       0.0038770414 0.04707527 -0.028569221 -0.015919298
000220 b4 4b 9f bd 70 b0 bc bd a2 41 86 bd 80 d8 d8 3b
       -0.07778111 -0.0921334 -0.06555487 0.0066176057
000230 94 68 7d 3d ec 7f 03 3d 16 f6 ca bd 86 2d ee bd
       0.06186731 0.032104418 -0.099102184 -0.11629777
000240 d8 7e 89 3c 67 bb 8e bd 9c 8a bd 3d 9c 18 be 3d
       0.016784117 -0.06969338 0.09254953 0.092820376
000250 e8 fd 9e 3c 00 81 df bb d8 42 b0 bd a4 ca ea 3d
       0.019408181 -0.006820798 -0.086064994 0.11464432
000260 00 92 d5 bb 58 15 0e 3d 90 a2 dd 3d 64 19 be bd
       -0.0065176487 0.034688324 0.10822022 -0.092821866
000270 58 c0 df 3c 1b 2b 89 bd 4f 4f 4d bd 96 74 be 3d
       0.027313396 -0.06697675 -0.050124463 0.09299581
000280 22 c9 87 bd c8 b9 8c 3c 3e 96 d6 3d 48 7a 2f 3d
       -0.0663016 0.017178431 0.10477875 0.042841226
000290 68 f9 9b 3c de b1 9e bd 9e d2 d1 bd 2f 71 9f bd
       0.019039825 -0.07748769 -0.1024525 -0.0778526
0002a0 b8 3c f3 3c d8 a2 b6 3c f4 63 9d 3d c0 e9 f0 bd
       0.029692039 0.022294447 0.0768508 -0.11763334
0002b0 36 94 5b 3d d0 27 bc bc fe f5 9a 3d 88 f1 c8 3d
       0.05360814 -0.022968203 0.075664505 0.098116934
0002c0 c8 8a 8d 3c 2c 37 6b 3d 96 cb f7 3d 10 2f 92 3d
       0.01727809 0.057425663 0.12099378 0.07137883
0002d0 1a 57 b0 bb 25 c6 29 bd 06 df b3 bd 60 a7 89 3b
       -0.005381477 -0.04144873 -0.08782773 0.004200861
0002e0 28 db fe bc f4 20 61 bd 14 46 37 3d ca c8 c4 3d
       -0.031110361 -0.054963067 0.044744566 0.0960861
0002f0 80 bc 38 3c c6 ab b9 bd 9c ed 0b bd 41 89 11 3e
       0.011275411 -0.09065966 -0.03416215 0.14212514
000300 1c 29 fb bd cc 31 53 bd d2 54 04 3d 36 59 d3 bd
       -0.122637 -0.051561162 0.032307453 -0.1031975
000310 8e 01 2a bc 80 5f a8 3b 00 27 b1 3a 6c 07 5e 3d
       -0.010376347 0.0051383376 0.0013515651 0.054206297
000320 78 f6 b9 bd e4 19 ad bd 80 ff d0 bc e8 b7 c1 bd
       -0.09080213 -0.08452204 -0.025512457 -0.094589055
000330 1c 7b 46 3d 76 66 ae 3d c0 dc 25 3c 90 b5 1c bc
       0.04845725 0.085156366 0.010123432 -0.009564772
000340 52 83 91 bc 75 b1 ce 3d 37 fe 1d 3e 46 0d cd 3d
       -0.017762814 0.10092441 0.15429007 0.10012297
000350 d4 94 19 3e c2 3d 91 bd 78 ef 39 bd ac 6a 4e bd
       0.1499818 -0.070918575 -0.04539439 -0.0503947
000360 02 f5 f6 bd 96 9d fc bd 20 6d 5e bc d8 c3 4d bd
       -0.1205845 -0.12334745 -0.013575822 -0.0502356
000370 6e 9c c8 3d 52 34 a8 bd a0 59 2e bd 38 40 5a 3d
       0.097954616 -0.08213104 -0.04256594 0.0532839
000380 cc 1f 4d 3d b8 fb d7 bd f0 ba bf bc ac f8 1f 3d
       0.050079152 -0.105460584 -0.023404568 0.03905551
000390 b0 9a c4 3d c8 ed ed bd e6 ee c7 3d 97 47 cf 3c
       0.09599817 -0.11617619 0.09762363 0.025302691
0003a0 b4 3a 29 3d 80 a2 a5 bb 74 bc cb bd 02 51 a4 bd
       0.04131575 -0.005054772 -0.09948054 -0.080232635
0003b0 6f b2 5a 3c 50 21 d2 3d 2e bb ef bd cc 8c 39 3d
       0.013348206 0.1026026 -0.117056236 0.04530029
0003c0 6a 4b 97 3d e4 2e 0e 3d a8 0a e5 3d bc c7 5b bd
       0.07387431 0.034712687 0.11183673 -0.05365728
0003d0 f8 5b aa ba ea 30 39 3d 80 90 79 bb 04 da 06 3d
       -0.001299738 0.045212664 -0.0038080513 0.03292276
0003e0 3c ac 27 bd 78 5d b7 bd 18 4c ae bd 0c e1 c2 bd
       -0.04093574 -0.089533746 -0.085106075 -0.095155805
0003f0 78 a1 12 bd 86 7f 81 3d 49 29 8e bd 23 f4 c9 3d
       -0.03579852 0.06323151 -0.06941468 0.098610185

embedding_projection.0.bias f4 [50]
000000 3a a0 9f bd a4 9e 10 3d d2 b1 ce 3c 93 9b c0 bd
       -0.07794233 0.03530754 0.025231276 -0.094046734
000010 8a 05 38 3d 6a 6a a0 3d 42 3a c9 3c 11 5d b1 bd
       0.044927157 0.07832797 0.024563912 -0.08660329
000020 b8 c9 b3 3d 8f b8 71 3d 89 e4 d4 bd 04 c3 1e bd
       0.08778709 0.0590139 -0.10395152 -0.0387602
000030 6d 82 04 be 34 a3 5b bd 4a 75 e5 bd c2 65 97 bc
       -0.12940378 -0.05362244 -0.11204012 -0.01848114
000040 19 7e 0f bd d3 a4 6f 3d 80 c3 14 3d f0 15 04 3e
       -0.035032365 0.058506798 0.036319256 0.12898993
000050 73 b1 dd bd 0f ce ba 3c ca aa af bd 4b a2 93 3d
       -0.108248614 0.022803335 -0.08577497 0.07208689
000060 d7 7c 8a 3c 7c 4d 7a 3c 5d 3e ff bd a4 c7 88 bc
       0.016905231 0.015277263 -0.12463067 -0.016696759
000070 91 e3 38 bd c7 e0 51 bc 9c 61 43 bd 91 fd c3 3c
       -0.0451389 -0.012809939 -0.04770051 0.02392462
000080 d2 ec 94 3d 2c 35 6d 3d c8 00 b4 bd d5 87 9d bd
       0.072717324 0.057912037 -0.087892115 -0.076919235
000090 56 93 41 ba 0d 78 b0 3c 24 ae 50 bd 32 03 4a 3c
       -0.00073843205 0.02154162 -0.050947323 0.012329863
0000a0 4b eb f0 bd 7d 32 f1 bd f3 57 7f 3c 3e a8 d3 3c
       -0.117636286 -0.11777208 0.015584934 0.02583706
0000b0 d1 1c 82 3d a1 79 d7 bb 57 6c df bd 28 50 9d 3a
       0.063531525 -0.0065757786 -0.10909336 0.0012002038
0000c0 63 05 5f bd 1b 26 70 bd
       -0.054448497 -0.05863009

embedding_projection.2.weight f4 [50]
000000 3c 27 80 3f 17 65 80 3f 8f 18 7f 3f 89 b9 80 3f
       1.0011973 1.003085 0.9964685 1.0056621
000010 59 b4 7f 3f 62 55 7a 3f 08 aa 7d 3f 60 c4 7f 3f
       0.99884564 0.97786534 0.9908757 0.9990902
000020 04 c7 7d 3f c1 ac 7f 3f 6c 1c 80 3f f0 db 7f 3f
       0.991318 0.99872977 1.0008674 0.99944973
000030 e4 85 7f 3f d0 f9 80 3f bd 55 7f 3f 37 9f 80 3f
       0.99813676 1.0076237 0.997402 1.0048589
000040 73 e9 7f 3f 49 e4 7f 3f 28 7b 80 3f 2c e8 7f 3f
       0.9996559 0.9995771 1.0037584 0.9996364
000050 bb 19 80 3f 20 d3 7d 3f 0e d3 7d 3f ff 22 7f 3f
       1.0007852 0.99150276 0.9915017 0.99662775
000060 b6 94 81 3f 84 33 7f 3f 2c 7d 80 3f a9 6c 82 3f
       1.0123508 0.9968798 1.00382 1.018941
000070 5c dd 7f 3f b7 a6 7e 3f 22 10 81 3f 4b 87 80 3f
       0.9994714 0.99473137 1.0083048 1.0041288
000080 0e 8e 7d 3f 46 61 81 3f 61 e3 7f 3f 21 d6 7d 3f
       0.99044883 1.010781 0.9995633 0.9915486
000090 50 8e 80 3f 6f cd 80 3f 7c 6d 80 3f 51 9f 7f 3f
       1.004343 1.0062693 1.0033412 0.9985247
0000a0 64 4d 80 3f cf 01 80 3f c7 11 81 3f f2 d2 7f 3f
       1.0023618 1.0000552 1.008355 0.9993125
0000b0 8d 43 7a 3f 57 6a 80 3f 01 0f 81 3f 94 68 7f 3f
       0.97759324 1.0032452 1.0082704 0.9976895
0000c0 44 85 80 3f 59 cf 7e 3f
       1.004067 0.9953514

embedding_projection.2.bias f4 [50]
000000 3c 55 20 bc 66 85 93 3b 63 89 3a 3c 32 eb 33 bb
       -0.009785946 0.0045019863 0.011385295 -0.002745342
000010 f4 c3 59 3b aa 21 66 ba 4e 3c dd 3a 9b 28 5f 3b
       0.003322837 -0.000877882 0.0016878934 0.0034051302
000020 74 ec dd 3b d4 96 28 3b 6e e1 a4 ba d5 66 11 ba
       0.006772572 0.0025724666 -0.001257939 -0.0005546634
000030 bc 6d a7 b9 80 73 9e 3a 85 22 64 39 61 e6 04 bc
       -0.0003193448 0.0012088865 0.00021756634 -0.008111567
000040 1e fd 8c ba a2 16 b4 ba 78 cc 13 bc 60 8b 8b ba
       -0.0010756587 -0.0013739655 -0.009020917 -0.0010646395
000050 f9 c2 f7 ba 47 8d 38 ba ce a1 3a 3c 70 33 2a bb
       -0.0018902711 -0.0007040095 0.011391116 -0.00259706
000060 cf 7d 53 3a 07 5b 25 3a 23 40 0d bc 99 3a cb ba
       0.0008067758 0.00063078146 -0.008621248 -0.0015505134
000070 ef ed 2c b9 25 29 11 3b a1 c0 98 bb 8e 7e 02 bb
       -0.00016491835 0.0022149768 -0.004661635 -0.0019911858
000080 60 00 0c bb 22 63 66 bc 72 ea c2 bb d8 bc bc 3a
       -0.0021362528 -0.014061721 -0.005948358 0.0014399542
000090 f6 7a 4d 3b 01 0c ff bb 21 0c 48 ba 68 d2 23 3a
       0.0031353808 -0.0077834134 -0.0007631202 0.00062493095
0000a0 52 eb 98 bb 32 f2 c1 ba d3 61 ee 39 ff 88 87 3a
       -0.0046667242 -0.0014796911 0.00045467782 0.0010340511
0000b0 00 95 9d bb c1 71 16 bc fb c4 39 bc c9 ea 2c 3b
       -0.004809022 -0.0091823945 -0.011338468 0.002638506
0000c0 8d cb cb bb fa 49 2d 3b
       -0.0062193335 0.0026441799

embedding_projection.3.weight f4 [30, 50]
000000 7d 2f 37 bd df c9 92 3d 5c 96 7f bd 04 a6 1f bd
       -0.044723023 0.0716741 -0.062399253 -0.038976684
000010 e0 d3 66 bd 56 56 d2 3b 2f 74 3e bd a8 0d 00 3e
       -0.056354403 0.0064189835 -0.04649752 0.1250521
000020 f5 4a 00 be fb 68 8a bd 90 94 8c 3d b3 b1 21 bd
       -0.12528594 -0.06758305 0.068642735 -0.039476108
000030 b7 ac f3 3d e2 f7 0c be 1a a5 13 3e ed 41 0d 3e
       0.11898177 -0.13766435 0.1441845 0.1379468
000040 4b 54 0c be 2a 77 25 bd 4f 54 34 3d b5 74 a8 bd
       -0.1370403 -0.040396847 0.044025715 -0.08225385
000050 c3 0e 38 bd b5 ba c9 3d 23 39 89 bd 9b 8b 91 bc
       -0.044935953 0.09850065 -0.06700351 -0.017766764
000060 70 aa be 3d 37 19 07 3e 66 04 e1 bd 44 06 b4 bd
       0.09309852 0.13193212 -0.10987167 -0.087902576
000070 6b 84 de bd 74 80 3f 3d 67 bd 97 3d 5a 23 7e 3d
       -0.108651005 0.04675336 0.074091725 0.062045433
000080 d5 a0 f7 bd e7 32 8d 3d 25 02 05 3e 4f 21 b3 3c
       -0.12091223 0.068944745 0.129891 0.021866469
000090 af e1 08 be 70 ad b1 b9 58 97 ea 3d cf cc bc bd
       -0.13367341 -0.00033889292 0.11454648 -0.09218752
0000a0 7d cd cf 3d fe 9b 5e 3d 81 97 e1 3d 3a df a0 bd
       0.10146616 0.054347984 0.11015225 -0.07855077
0000b0 45 84 db 3b 5b be 46 bd 4e 18 b0 3c 0c 47 c4 bc
       0.0066991174 -0.04852138 0.021495964 -0.023959659
0000c0 5e c6 86 3d ac ee 15 bc c5 a5 67 3d d7 81 ee 3c
       0.06580804 -0.009151142 0.056554575 0.029114647
0000d0 51 b4 d5 bd ea 0a ba 3d 62 0a 78 3d ef c4 8d 3d
       -0.10434783 0.09084113 0.060556777 0.06922328
0000e0 65 5a 13 3d bf 5c cc 3d b1 c5 90 3b 36 33 bb bc
       0.03597488 0.099786274 0.004418098 -0.022851568
0000f0 14 17 3d 3d 78 4d 1c 3d 27 e7 97 3b 58 dc 2a be
       0.046164587 0.038159817 0.00463571 -0.16685617
000100 c4 a9 8e bd 45 7f de 3d 4c e1 16 3c 9c 5a 8e bc
       -0.06965974 0.108641185 0.009208988 -0.01737719
000110 f3 0c aa bd aa 35 a9 3c 4e 94 8a bd 6d cf 68 3d
       -0.08303251 0.020655472 -0.06766568 0.05683844
000120 d6 f9 1d 3d e4 53 62 bd 3f d2 c5 bc 53 28 85 bb
       0.03856834 -0.055255786 -0.024148105 -0.004063645
000130 df 0c f5 3d 31 11 16 bd 3f 1f db 3c 49 91 d8 ba
       0.119653456 -0.03663749 0.026748298 -0.001652279
000140 09 8e dc 3d 72 54 d0 3d d2 f7 48 3d 66 bb d3 bc
       0.107692786 0.10172357 0.049064465 -0.025846194
000150 fc 6a 29 3d 3a 89 cd 3d d7 06 e2 3d e2 64 f0 bd
       0.041361794 0.100359395 0.11036461 -0.11737992
000160 0a 63 28 3d c9 a5 ab 3d 6e 91 93 3d 48 22 ac bc
       0.041110076 0.083812304 0.07205473 -0.02101244
000170 2b 93 bf 3d c9 d0 b6 3d bb d3 5d bd a9 23 73 bc
       0.09354242 0.08926541 -0.054157 -0.014840045
000180 49 47 8b 3d e1 06 3d bd 28 5d 8b 3d a8 ca 4b bd
       0.06800706 -0.04614914 0.068048775 -0.049753815
000190 5b 19 ac 3d 17 8b 07 be 15 79 0a be 16 2b c2 3d
       0.08403274 -0.13236652 -0.13522752 0.09480874
0001a0 00 73 ed bd c9 c0 b9 bd 7c 7f a3 bc 9f d9 f9 3d
       -0.115942 -0.09069974 -0.01995825 0.12199711
0001b0 d2 da 83 3d f9 e2 ce bc f6 ec 92 bd c0 d8 a7 3d
       0.06438221 -0.025254713 -0.07174103 0.08195639
0001c0 e4 ae cf bd 9f 9e 72 3b 11 76 94 bd 54 a6 03 be
       -0.101407796 0.0037020815 -0.07249082 -0.12856418
0001d0 8f d2 81 bc e5 51 fc bd 93 61 ab 3d 24 5d f7 bd
       -0.015847472 -0.12320308 0.0836822 -0.12078312
0001e0 a0 24 62 bc b0 c0 e4 bb 28 86 81 bd 4a 0a 00 3e
       -0.013802677 -0.006980978 -0.063244164 0.12503925
0001f0 69 dc c0 bc 6e 24 0b 3e e9 b1 09 bc 9a c6 b8 3d
       -0.0235426 0.13588116 -0.0084042335 0.09022255
000200 87 b7 c3 3d 47 6c ca bd 0e 0a d4 3c 6f ab 1d bd
       0.095564894 -0.098839335 0.0258837 -0.03849357
000210 5b bf 10 3e e1 3c 54 bd b3 88 bc 3c b1 4e 24 bd
       0.14135496 -0.05181587 0.023014402 -0.04011411
000220 23 b7 83 bd f8 37 a5 3d a3 07 20 bd bf 14 de bd
       -0.06431415 0.08067316 -0.039069783 -0.10843801
000230 8d af ca 3d 07 95 17 3d ee 7e 27 be 82 bc 49 3d
       0.09896765 0.037007358 -0.16357014 0.04925204
000240 9f 91 63 bd ee da 0f 3e be 98 a4 3c 4b d6 82 bc
       -0.055558797 0.14048359 0.020092364 -0.015971323
000250 24 b4 ed 3d 8a 7e 2b 3a 34 ca cf 3d 71 7e 92 bd
       0.11606625 0.0006541988 0.10145989 -0.07153023
000260 8b e5 77 bc b1 19 15 bd 05 c8 1e bc 44 a7 28 3d
       -0.015130411 -0.036401454 -0.009691243 0.041175142
000270 50 85 2f bd 5b 9f e7 bd 64 c3 ab bc 60 84 b2 bc
       -0.042851746 -0.113096915 -0.020967193 -0.021791637
000280 ec 9b 14 3e cd 0d ca bc 44 9c 37 bd 78 06 d2 3d
       0.14512604 -0.024664784 -0.04482676 0.1025514
000290 28 a0 45 bd e4 bd e8 3d 48 77 2d 3c f9 40 8d bd
       -0.04824844 0.11364344 0.010587521 -0.06897158
0002a0 e0 06 b3 3d 95 49 12 bd 9f 08 f3 3d c6 99 b1 3d
       0.08741546 -0.035714705 0.11866879 0.08671908
0002b0 7a 44 c6 3d b2 31 d8 bd 11 53 1f 3d 70 38 a0 bd
       0.096810296 -0.10556354 0.038897578 -0.078232646
0002c0 b3 4d b5 bd 05 3d aa bd 2e 67 1c bd 2a 70 c8 3d
       -0.088527106 -0.0831242 -0.038184337 0.097870186
0002d0 20 57 f7 bc 08 48 e0 bd 3a 7d e2 bd 15 8b 12 3e
       -0.030192912 -0.10951239 -0.11059041 0.14310868
0002e0 e6 e4 c9 bd f4 62 1b 3d f7 c8 a1 bd 4e b2 de bd
       -0.09858112 0.037936166 -0.07899659 -0.10873853
0002f0 9b aa cd bc 80 7f c0 3d 7d c9 e3 bd c2 f8 e2 bb
       -0.025105765 0.09399319 -0.11122415 -0.006926627
000300 25 a2 0b be 04 cb 84 bc 0e e3 b1 3d e8 6e 29 3e
       -0.13636072 -0.016210087 0.08685885 0.16546214
000310 c9 6d 9f 3d 03 bb 98 3d 2a 6a e0 3d a2 0e ff bd
       0.07784612 0.07457545 0.10957749 -0.12453963
000320 c4 a0 a4 3c ff de c3 bd 11 6c b6 3d 1f 55 5f 3d
       0.02009619 -0.095640175 0.08907331 0.054524537
000330 1e a5 85 3c ec 6d 3c 3d e6 ff f3 bc cf 86 d0 3d
       0.016314086 0.046003267 -0.029785108 0.10181963
000340 23 df 90 3d 97 29 94 3d ce 54 c3 3c 00 76 e8 3d
       0.0707381 0.07234495 0.023844149 0.11350632
000350 65 8e 01 3e eb d8 95 bc 6a 12 c4 bd ba 93 aa 3d
       0.12651975 -0.018291911 -0.09573825 0.08328958
000360 d2 76 ae bd aa 0f ef 3d 0e 91 7f bd e4 03 7b bd
       -0.08518757 0.116729096 -0.062394194 -0.061283007
000370 aa 5a ae bb 67 0a 2f 3d 18 91 a8 bd df 66 cd bd
       -0.0053208666 0.04273453 -0.082307994 -0.10029387
000380 e0 f6 da bd c5 71 98 3c 25 d2 ad 3d 38 5d 23 be
       -0.10691619 0.018608937 0.084873475 -0.15953529
000390 66 0b 14 3e 63 01 23 3d a1 81 91 bd 9a 9a b8 bd
       0.14457473 0.039796244 -0.07104803 -0.09013863
0003a0 85 82 82 bb a0 5a be bd c7 0c 51 bc 2b 41 d5 3d
       -0.0039828443 -0.09294629 -0.012759394 0.104128204
0003b0 36 68 f1 bd 22 41 33 3d 78 85 97 bd 9f dd cb 3d
       -0.11787455 0.043763287 -0.07398504 0.0995438
0003c0 a2 34 bf 3d 9c 02 0b ba 96 7e 13 be 26 73 be 3d
       0.09336211 -0.0005302818 -0.14403757 0.092993066
0003d0 5c 57 ff 3d ec d7 4e bc b7 18 8f 3d d6 8b e7 bb
       0.12467834 -0.012624722 0.06987136 -0.0070662303
0003e0 d5 45 3a 3d 67 ea 10 3e 24 33 08 be 88 50 05 be
       0.045476753 0.14151917 -0.13300759 -0.13019001
0003f0 42 1c f2 bc 5a 45 00 3d 99 4c 06 bd 09 c4 ed bd
       -0.02955449 0.03131614 -0.032787893 -0.11609656

embedding_projection.3.bias f4 [30]
000000 a6 c1 03 be 6c 89 20 bd c2 53 19 be 87 88 92 3c
       -0.1286684 -0.039193556 -0.14973357 0.017887367
000010 35 a3 9c bd 4a 20 a7 bd d1 80 d8 bc 5a 37 da bd
       -0.07648317 -0.081604555 -0.026428612 -0.10655089
000020 21 f1 06 be f2 74 ca 3a f1 59 d7 3c 52 ed cb bd
       -0.13177921 0.0015446229 0.026288005 -0.09957375
000030 bf d5 1f 3d ae eb a1 3c 1f 53 d7 bc 0f ea 0a 3e
       0.039022204 0.019765701 -0.026284752 0.13565849
000040 2c 90 06 bd 07 57 ea bd eb 59 1a bd e1 e0 04 bd
       -0.032852337 -0.114423804 -0.03768341 -0.032441024
000050 8b f5 38 3d ad 6b f2 3d ca f6 e5 bb b8 55 87 bb
       0.045156043 0.11836944 -0.007017945 -0.0041300915
000060 0a d1 d7 bd 6e 29 c5 bc 8a 56 2f 3d 5d 91 c9 3d
       -0.10537918 -0.024067607 0.04280714 0.09842179
000070 86 89 b6 3d af a3 93 bc
       0.08912949 -0.018022386
