lucid_ddos/data/final_projection.pt (torch, 146446 bytes, 2 tensors)

weight f4 [2, 30]
-3.5472963 -2.839865 4.585893 5.4612913 10.479092 5.230363 0.43237582 -3.942999
10.356918 5.9479284 -2.2423415 -4.099791 -0.0030819168 -2.2218888 -2.2334933 -4.0138454
0.8083534 -0.0016555714 -0.15715995 -2.1302824 4.541778 6.080038 -2.572793 -0.9240226
-3.340748 0.73214954 -0.5171684 4.187313 -7.1819468 -1.3891786 3.5102577 3.067668
-4.536119 -5.228844 -10.491537 -5.325118 -0.61760694 3.888372 -10.331594 -5.7066727
2.1711733 3.8492634 0.0050294483 2.2508934 2.3386698 4.0046124 -0.6822308 0.00046902848
0.45383298 2.148792 -4.601068 -6.153234 2.6451125 0.9560647 3.097207 -0.8339696
0.49783692 -3.9918177 7.048045 1.2531028
00000000: e706 63c0 59c0 35c0 a3bf 9240 e6c2 ae40
00000010: 5caa 2741 225f a740 5d60 dd3e 185a 7cc0
00000020: f0b5 2541 6e55 be40 8682 0fc0 7d31 83c0
00000030: fcf9 49bb 6d33 0ec0 8ef1 0ec0 6c71 80c0
00000040: 40f0 4e3f c2ff d8ba 8aee 20be 8c56 08c0
00000050: 3f56 9140 ac8f c240 a4a8 24c0 bf8c 6cbf
00000060: d1ce 55c0 276e 3b3f 2665 04bf 78fe 8540
00000070: 82d2 e5c0 9bd0 b1bf 10a8 6040 ac54 4440
00000080: e327 91c0 b152 a7c0 56dd 27c1 5e67 aac0
00000090: 7d1b 1ebf 16db 7840 364e 25c1 109d b6c0
000000a0: 81f4 0a40 555a 7640 12ce a43b a30e 1040
000000b0: c4ac 1540 c925 8040 ada6 2ebf f0e7 f539
000000c0: cc5c e83e cf85 0940 f33b 93c0 4be7 c4c0
000000d0: 8649 2940 a8c0 743f a438 4640 087f 55bf
000000e0: 7be4 fe3e f179 7fc0 9689 e140 ac65 a03f

bias f4 [2]
0.07657044 -0.112550385
00000000: f6d0 9c3d d180 e6bd
