lucid_ddos/output/10t-10n-DOS2019-LUCID.pt (torch, 11456 bytes, 3 tensors)

feature_extractor.0.weight f4 [64, 1, 3, 11]
-0.25207785 -0.6009398 -0.58417857 -0.43623453 -0.65456176 0.46934828 0.25718385 0.09705998
-0.63512844 -0.73410934 0.04828234 -0.34182227 -0.46283987 -0.6344022 -0.4980483 -0.50975937
0.44466105 0.2559534 -0.19068116 -0.5640909 -0.78399885 -0.10513618 -0.36911494 -0.6566941
-0.55941296 -0.5600395 -0.37769532 0.44952816 0.023164956 -0.40822855 -0.20202237 -0.6086435
0.11490167 -0.7590479 -0.76264304 -0.6843449 -0.44767842 -0.6295255 -0.4989552 -0.105258994
-0.40665552 -0.67419004 0.13054515 0.0020613675 -0.69215745 -0.50770193 -0.6927863 -0.5493375
-0.6507957 -0.5954944 -0.19455059 -0.6700349 -0.5060841 -0.042314325 0.17338997 -0.4609915
-0.60603243 -0.716575 -0.49452418 -0.5465033 -0.7049749 0.087450236 -0.4838339 -0.44615686
-0.09758091 -0.028654223 1.7329814 0.044385616 -50.39849 -5.9575777 1.1857963 9.737471
7.683239 20.03144 -4.900596 -0.9254724 0.06329454 2.0239449 -10.6337185 7.4508095
-5.131279 -0.47114483 10.873102 7.0305333 22.873798 -2.4525964 -12.310102 0.12668829
-3.5907383 -9.201672 10.90267 0.8343972 5.3023114 6.065159 15.587284 6.1345754
11.638392 -11.070247 -0.07404786 -0.052696075 0.10292183 -0.4211449 -0.4399712 -0.44981822
-0.11252504 -0.14804079 0.16464454 -0.51254594 0.11932293 0.03607436 0.05597002 0.07351593
-0.22387397 -0.65362924 -0.5034296 0.12990673 0.12610796 0.10569295 -0.647619 -0.12535405
-0.105277225 -0.13373867 0.11698422 -0.49889743 0.092762664 -0.6215442 -0.16367055 -0.03699842
0.07911463 -0.38970527 -0.10810898 0.037776805 7.60601 -11.458128 -31.097624 -7.700908
1.2679998 13.212055 11.890444 65.03704 -9.9558525 -16.939608 -0.10670129 4.317554
-24.29972 53.848595 -0.73706263 -1.1910893 9.490277 16.824102 68.6229 -2.5422754
-31.419624 -0.005980612 -12.281768 -15.898471 12.909661 -2.3734813 5.480947 7.9905143
20.146557 7.109486 11.849909 -16.985214 -0.09008034 -0.47727466 0.5428216 -0.33827704
-0.42521465 -0.306638 -0.7837519 -0.6144016 -0.716124 -0.4507427 1.1794745 0.16966087
-0.44384816 0.3207887 -0.49095616 -0.27211696 -0.35491756 -0.8672032 -0.75400317 -0.68437666
-0.72064537 1.0691137 -0.1504938 -0.7184847 -0.18933932 -0.711592 -0.43912426 -0.6461286
-0.9057045 -0.5231016 -0.4889121 -0.79288566 0.6018326 0.1118347 -0.41234958 0.3552817
-0.581813 0.47317085 -0.5152877 -0.6662958 -0.07538867 -0.5877304 -0.6136235 0.5159843
0.02959224 -0.5121388 0.41831592 -0.5584163 -0.7569077 -0.5198237 -0.4474134 -0.0049705696
-0.46427476 -0.726144 0.45152566 0.15348868 -0.73258084 -0.43024394 -0.73168486 -0.72315836
-0.504004 -0.7241629 -0.2414742 -0.4652511 -0.46265817 0.7746529 -0.035323396 -0.7357285
-0.42183116 -0.6373071 -0.67214465 -0.55807304 -0.49881476 0.08020847 -0.4537198 -0.73866063
-0.14298259 -0.015248579 -0.5274046 -0.60260487 -0.68847305 -0.5965055 -0.76412976 -0.71872
-0.12986825 -0.43629774 -0.44709232 -0.05912839 0.007807444 -0.5228904 -0.5778025 -0.6873948
00000000: 5910 81be 31d7 19bf ba8c 15bf 225a dfbe
00000010: 5c91 27bf 6b4e f03e 9aad 833e 62c7 c63d
00000020: c797 22bf 97ee 3bbf b4c3 453d 5403 afbe
00000030: 59f9 ecbe 2f68 22bf 3000 ffbe 977f 02bf
00000040: 9daa e33e 530c 833e ec41 43be 4368 10bf
00000050: 26b4 48bf a351 d7bd a2fc bcbe 1b1d 28bf
00000060: b035 0fbf c05e 0fbf 4861 c1be 8e28 e63e
00000070: 6fc4 bd3c 5503 d1be f4de 4ebe 0fd0 1bbf
00000080: 9151 eb3d f750 42bf 933c 43bf 3a31 2fbf
00000090: 1b36 e5be 9528 21bf 0e77 ffbe 0792 d7bd
000000a0: 2735 d0be b897 2cbf a1ad 053e 0218 073b
000000b0: 3b31 31bf c1f8 01bf 715a 31bf 62a1 0cbf
000000c0: 8c9a 26bf 5272 18bf 4538 47be 6887 2bbf
000000d0: ba8e 01bf c951 2dbd 248d 313e 1407 ecbe
000000e0: f124 1bbf 7671 37bf 4632 fdbe a4e7 0bbf
000000f0: 3c79 34bf 1c19 b33d 14b9 f7be ac6e e4be
00000100: 80d8 c7bd 43bc eabc 56d2 dd3f b1cd 353d
00000110: 0e98 49c2 7aa4 bec0 2cc8 973f aecc 1b41
00000120: 18dd f540 6440 a041 afd1 9cc0 c2eb 6cbf
00000130: 91a0 813d 5088 0140 b623 2ac1 086d ee40
00000140: 7033 a4c0 e539 f1be 3af8 2d41 21fa e040
00000150: 8afd b641 57f7 1cc0 2ef6 44c1 93ba 013e
00000160: a8ce 65c0 0c3a 13c1 5671 2e41 0e9b 553f
00000170: 89ac a940 c815 c240 8465 7941 714e c440
00000180: db36 3a41 bb1f 31c1 68a6 97bd d7d7 57bd
00000190: aec8 d23d 4ea0 d7be e843 e1be 934e e6be
000001a0: 8773 e6bd 0198 17be 9498 283e 3636 03bf
000001b0: 955f f43d b5c2 133d d240 653d 858f 963d
000001c0: 383f 65be 3f54 27bf c3e0 00bf 4506 053e
000001d0: 7222 013e 8c75 d83d 5cca 25bf d05c 00be
000001e0: 969b d7bd caf2 08be 6c95 ef3d 7c6f ffbe
000001f0: 5afa bd3d 851d 1fbf 4199 27be a88b 17bd
00000200: da06 a23d 7387 c7be 3e68 ddbd dabb 1a3d
00000210: 6f64 f340 7e54 37c1 efc7 f8c1 d76d f6c0
00000220: d14d a23f 9464 5341 423f 3e41 f712 8242
00000230: 2c4b 1fc1 5184 87c1 3586 dabd 6729 8a40
00000240: d465 c2c1 f664 5742 23b0 3cbf 9d75 98bf
00000250: 2dd8 1741 c397 8641 ed3e 8942 a4b4 22c0
00000260: 645b fbc1 02f9 c3bb 1f82 44c1 2360 7ec1
00000270: f98d 4e41 1ee7 17c0 eb63 af40 4bb2 ff40
00000280: 262c a141 e980 e340 3a99 3d41 b8e1 87c1
00000290: 0b7c b8bd 585d f4be 5bf6 0a3f a632 adbe
000002a0: bcb5 d9be a8ff 9cbe f7a3 48bf 6c49 1dbf
000002b0: e753 37bf bfc7 e6be 05f9 963f 94bb 2d3e
000002c0: 1140 e3be 6b3e a43e 9b5e fbbe ea52 8bbe
000002d0: c1b7 b5be 0701 5ebf 5a06 41bf 4f33 2fbf
000002e0: 377c 38bf b8d8 883f 0c1b 1abe 9dee 37bf
000002f0: 2be2 41be e52a 36bf e5d4 e0be af68 25bf
00000300: 40dc 67bf fde9 05bf b052 fabe 8efa 4abf
00000310: b411 1a3f 9709 e53d 7c1f d3be 7ce7 b53e
00000320: b2f1 14bf 7343 f23e e5e9 03bf 5d92 2abf
00000330: 6065 9abd 8075 16bf 6e16 1dbf 8c17 043f
00000340: 6d6b f23c 871b 03bf 812d d63e 5ff4 0ebf
00000350: b4c4 41bf 2a13 05bf 5f13 e5be 29e0 a2bb
00000360: 6cb5 edbe 93e4 39bf 5f2e e73e 232c 1d3e
00000370: 6b8a 3bbf ef48 dcbe b34f 3bbf e820 39bf
00000380: 6806 01bf bd62 39bf 0345 77be 6435 eebe
00000390: 88e1 ecbe a74f 463f 44af 10bd b458 3cbf
000003a0: 41fa d7be 8f26 23bf ac11 2cbf e0dd 0ebf
000003b0: a664 ffbe 5744 a43d f64d e8be dd18 3dbf
000003c0: 076a 12be 2dd5 79bc fd03 07bf 5044 1abf
000003d0: c53f 30bf 96b4 18bf 029e 43bf 09fe 37bf
000003e0: 2ffc 04be 6b62 dfbe 49e9 e4be 9c30 72bd
000003f0: 96d5 ff3b 25dc 05bf ddea 13bf 1bf9 2fbf

feature_extractor.0.bias f4 [64]
-0.49201962 -0.71589476 -0.04299548 -0.69330055 -0.033387657 -0.578361 -0.55553514 -0.73736936
-0.5329119 -0.2804101 -0.513734 -0.41673222 -0.5273409 -0.5220675 -0.5427061 -0.5171328
-4.3497496 -1.4658368 -0.15197109 -0.5488327 -0.014888046 -0.58651644 -0.5865827 -0.5744587
-0.5712094 -0.17198364 -0.5810548 -0.23354337 -0.6025878 -0.5054905 -0.5390824 -0.5846645
-1.0251054 -0.66093993 -0.595583 -0.49882314 -0.51933163 -0.5261819 -0.56288034 -0.67911464
-0.7025279 -0.5794555 -0.7989139 -0.49223542 -2.1388204 -0.40083414 -0.5249045 -0.6133129
-0.69535184 -0.6246725 -0.6905783 -0.64777493 -0.11401133 -0.10375299 -0.6122552 -0.37740585
-0.13498048 -0.772231 -0.55191624 -0.5658578 -0.67079365 -0.08809493 -4.092103 -0.277706
00000000: ffe9 fbbe e144 37bf 071c 30bd 257c 31bf
00000010: 7fc1 08bd 770f 14bf 8d37 0ebf 3dc4 3cbf
00000020: ea6c 08bf ea91 8fbe 1284 03bf ed5d d5be
00000030: d0ff 06bf 37a6 05bf c9ee 0abf d162 04bf
00000040: 2631 8bc0 8aa0 bbbf 4f9e 1bbe 4d80 0cbf
00000050: feec 73bc f125 16bf 492a 16bf ba0f 13bf
00000060: c73a 12bf 7b1c 30be 02c0 14bf fe25 6fbe
00000070: 3243 1abf d367 01bf 4e01 0abf 93ac 15bf
00000080: a736 83bf 5c33 29bf 2178 18bf bf65 ffbe
00000090: ebf2 04bf dbb3 06bf ed18 10bf 75da 2dbf
000000a0: ded8 33bf 3257 14bf 9f85 4cbf 4806 fcbe
000000b0: 6fe2 08c0 223a cdbe 2460 06bf 1302 1dbf
000000c0: 9402 32bf 89ea 1fbf bdc9 30bf 94d4 25bf
000000d0: c67e e9bd 737c d4bd c2bc 1cbf 573b c1be
000000e0: 5338 0abe eeb0 45bf 624a 0dbf 0fdc 10bf
000000f0: 22b9 2bbf 1d6b b4bd 82f2 82c0 7b2f 8ebe

final_layer.0.weight f4 [1, 64]
0.14772333 -0.5370894 -10.173556 -0.28178963 -6.6069746 -0.59991086 -0.55514055 -0.5237244
0.38776365 -0.0671358 0.31873316 0.062187456 0.096177116 0.24889381 -0.5704757 0.4229129
1.6304085 -6.0852466 -2.3390036 0.10584361 -2.6415594 -0.53070563 -0.5060902 -0.5906535
-0.0747216 -0.07518008 0.1581325 -12.711694 -0.507136 -9.487082 0.66602755 -0.14735225
-0.40570542 0.12532808 -0.5700407 0.26122102 -0.49337253 -0.5251166 -0.52653825 -4.3199997
-0.580529 -0.48736718 0.75046444 0.21424696 6.6828785 0.17321286 0.2864956 -0.47812295
-0.56213504 -0.14471859 -0.54332924 -0.56746596 8.744924 -2.274613 -0.47683263 0.12119295
-0.06662761 -0.4765874 -0.5143205 -0.51704186 -0.52427167 -0.0813608 4.5609584 7.3174143
00000000: c944 173e b17e 09bf e3c6 22c1 bb46 90be
00000010: 566c d3c0 c293 19bf b11d 0ebf cd12 06bf
00000020: f588 c63e 7f7e 89bd fe30 a33e 46b8 7e3d
00000030: 82f8 c43d 05de 7e3e b20a 12bf 0a88 d83e
00000040: 3ab1 d03f 57ba c2c0 3cb2 15c0 89c4 d83d
00000050: 4f0f 29c0 53dc 07bf 218f 01bf 1135 17bf
00000060: a307 99bd 04f8 99bd 7ced 213e 1963 4bc1
00000070: aad3 01bf 16cb 17c1 c880 2a3f 82e3 16be
00000080: 9fb8 cfbe 0156 003e 30ee 11bf c3be 853e
00000090: 539b fcbe 0b6e 06bf 36cb 06bf 703d 8ac0
000000a0: 8c9d 14bf 3188 f9be 701e 403f 8e63 5b3e
000000b0: 24da d540 b65e 313e 8daf 923e 88cc f4be
000000c0: 15e8 0fbf 1c31 14be a017 0bbf 7345 11bf
000000d0: 35eb 0b41 4293 11c0 6823 f4be 0234 f83d
000000e0: 0e74 88bd 4403 f4be 82aa 03bf db5c 04bf
000000f0: ab36 06bf 7ea0 a6bd 5ff3 9140 4228 ea40
